model/Adam with batch_size=2048;epoch=300.pt (torch_old, 210647 bytes, 10 tensors)

lstm.weight_ih_l0 f4 [256, 1]
00000000: 7eee 33bc 6b86 023e edf3 00be 872d 9dbd
00000010: 4f55 d9bc 8e81 0e3c 1ee7 093e 7eac fe3d
00000020: 09b3 a9bd 530a fc3d 4dce b63d ec61 d03d
00000030: 7a63 2c3d 62ac e0bd 2ae3 efbd adbd 93bd
00000040: 8041 3abc 26a8 bfba 0e39 85bd 3112 e73d
00000050: 6cd8 e83d 9101 0abd d2a6 ba3d 26a1 073d
00000060: eb79 0c3e 3b0f 02be 502d ff3d ad7c fdbc
00000070: 2b05 c73d 671d e23d 5628 3bbd 97ff 583d
00000080: 7bcb 04bd f3d0 983d 813a 253e 6836 103e
00000090: 2668 79bd d94d be3c fea2 053d e617 5f3c
000000a0: f0f3 80bd 1c20 e23d e4db 61bd 38b0 b8bd
000000b0: 8b38 103e c4fb 9dbd 2bd2 d1bb 111c 193e
000000c0: d4e5 1c3d a1fc 933d c84e 523e 8b6c 56bd
000000d0: aff8 ad3d 3353 693c 2780 093e 58b5 f53c
000000e0: d1ba 1b3e d50b bb3d 201a 333e d764 7d3d
000000f0: 3a70 293d aeeb 363e 17be be3d f49f 053e
00000100: 4db3 b8bc ec47 c03d a3d2 9fbd 98b0 5fbc
00000110: 1638 ad3d 8aec 293e b3e6 39bd 1242 b13d
00000120: 2086 1e3d 08c9 a1bd c960 b33b d71d e63d
00000130: 9fa4 683d c845 ecbb a40d 1c3d 15cf 153e
00000140: 4d70 103c d906 a1bd f07a 173e da41 08bd
00000150: afc1 823d 8451 4dbd f9d8 9abd 45c8 4d3e
00000160: d629 fabc 7324 853d d34d 543d 8e88 153e
00000170: ee35 a537 524c 203e b563 b63d 55f0 15bd
00000180: 349e 9e3d 6c8d ae3c 7a82 c4bd ed46 173e
00000190: 8b69 9d3d 0aeb 233c b10b 183e 86e7 293e
000001a0: c73f c33d 3afb 4dbd 9d69 ea3d cb72 a8bd
000001b0: 1fe0 5bbd f2eb 493d a1ea d73d 39fd 053e
000001c0: 4c75 d53c 3158 833d 9fd2 2ebc fcbe 1f3c
000001d0: 268f 483e 7ca0 e53d 08d7 7fbc 8b6d 93bc
000001e0: d312 923d baa3 0dbd 91c2 37bd 86d9 073e
000001f0: c23d 293d 4cd5 75bc 99f7 f43d c757 183e
00000200: ec28 ec3d 4cb1 c6bd 7a0e 3abe f8d8 d63d
00000210: 709a 483e c9b2 05be bd5f 19be 9cb4 dd3d
00000220: f2bd b2bd 95d5 413d 8ab4 453e 24e0 033e
00000230: c0cb fd3d f449 edbd 9d94 5b3e 8766 90bd
00000240: 8dba 8ebd 66ae 37be 9d65 2d3e 2d0f 22be
00000250: 7c50 c43c bb8b 79bd e0ee 1bbe bc78 10be
00000260: 360b 373e 926c 193e 1225 793c c683 05be
00000270: e622 083e f94c 66bd da18 f03d fe4c c6bd
00000280: 4dd3 e43d 751b 723c de96 10be c850 443e
00000290: 265d 48be b582 99bd a768 86bd 4268 16be
000002a0: f331 3e3d 4610 4bbd 1bb7 04be 2087 bebd
000002b0: a055 0abe a4d0 c73d a698 243d 588a 0cbe
000002c0: 6a18 bf3d 8ca7 4ebd 29b9 3f3e 905d 293e
000002d0: 9f71 96bd f3e2 053e c5a7 943d 03c1 2ebe
000002e0: 0d8a cc3d acc2 183d ca18 9dbd d99d 663c
000002f0: df9c f23d 9df3 15be 7aa4 95bd a2d4 123e
00000300: ae97 523d e1da adbd d712 debc b523 19be
00000310: 90f6 8cbc f142 74bd 3ce9 573d 10c6 2b3c
00000320: 3485 1f3e 6bb9 d2bd f390 463e 4b4f c4bc
00000330: ad48 c13d 4d7d 99bd 8ce8 f73d 451e 0d3e
00000340: 5445 a63d 0a0d a1bd b061 b03d 6eec ab3d
00000350: d399 e83d 0e12 2e3e ad21 603d 186f e3bd
00000360: e697 07bd dbb7 243e 672a dbbc cd69 e23d
00000370: e316 3a3e b5c6 103e 769d 363e 9b5c 073e
00000380: 6b8c b13b ccef d13d d014 ea3b f866 9d3d
00000390: 0715 df3d c9b0 633e f277 713d f743 313d
000003a0: 02d8 6f3e e845 203e 06c7 ee3d 2f43 c8bd
000003b0: 10b1 a7bd 5aa0 14be f110 403e ed74 583d
000003c0: 7adc 163e f0d5 513e 6985 a2bc df36 273e
000003d0: 3511 0d3d 4e51 a5bc 39cf 29be a449 763c
000003e0: be30 563d 682c 373e a09d 6a3d d08f bc3c
000003f0: c51f d03d 08fc a4bc ef38 463d 9569 a6bd
-0.010982154 0.12746589 -0.1259305 -0.07674699 -0.026529936 0.00869788 0.1346707 0.12435244
-0.08286101 0.12306657 0.089260675 0.10174927 0.042087056 -0.109703794 -0.1171325 -0.07213912
-0.0113681555 -0.0014622256 -0.06505023 0.112827666 0.11369404 -0.0336929 0.0911385 0.033112668
0.13718383 -0.12701122 0.124598145 -0.03094324 0.097177826 0.11040764 -0.045692764 0.052978124
-0.032420617 0.07461729 0.16135599 0.14083254 -0.06089034 0.02323048 0.032626145 0.013616538
-0.062965274 0.110412806 -0.055141345 -0.09017986 0.1408407 -0.07714036 -0.006403228 0.14952113
0.03830512 0.072259195 0.20537865 -0.05234961 0.08494698 0.014241028 0.13427792 0.029993698
0.15207984 0.09133116 0.17490435 0.061863746 0.041366793 0.17863342 0.093136005 0.13049299
-0.022546435 0.09388718 -0.07803848 -0.013652943 0.08457963 0.16594139 -0.045386028 0.0865518
0.03870213 -0.07899672 0.005474184 0.1123616 0.05679762 -0.007210467 0.038098946 0.14629777
0.008815837 -0.07862634 0.1479299 -0.033265926 0.063845985 -0.050126567 -0.075609155 0.20095928
-0.030537527 0.06501093 0.05183203 0.14602873 1.9694646e-05 0.15654114 0.08905736 -0.03660615
0.077450186 0.02130767 -0.09595199 0.1477315 0.07686146 0.010004768 0.1484821 0.16592225
0.09533649 -0.050288416 0.114459254 -0.0822502 -0.053680535 0.04929728 0.10542799 0.13084878
0.026056908 0.064133056 -0.010670333 0.009750124 0.19585857 0.112122506 -0.015615232 -0.01799657
0.07132497 -0.03457997 -0.044863287 0.13266572 0.041318662 -0.015004467 0.11961288 0.14877234
0.11531243 -0.097017854 -0.18169585 0.10490602 0.19590163 -0.13056482 -0.14977928 0.10825464
-0.087276354 0.04732283 0.19307151 0.12878472 0.12392378 -0.11586371 0.2144341 -0.070508055
-0.069691755 -0.17937621 0.16933294 -0.15826102 0.02396416 -0.060924273 -0.15227842 -0.14108557
0.1787537 0.14982823 0.015206592 -0.13038549 0.13294563 -0.05622575 0.1172349 -0.09682654
0.11173115 0.014777054 -0.14120051 0.1917144 -0.19566783 -0.074956335 -0.065629296 -0.14688209
0.046434354 -0.049576066 -0.12960474 -0.09303117 -0.13509226 0.09756592 0.04018464 -0.13724649
0.093308285 -0.050452754 0.18722977 0.16539598 -0.0734589 0.13074856 0.07258562 -0.17065816
0.099872686 0.03729503 -0.07670744 0.01407572 0.11846327 -0.14643712 -0.07306762 0.14338925
0.051414184 -0.084890135 -0.027108593 -0.14955027 -0.017207414 -0.059634153 0.052712664 0.0104842335
0.15578157 -0.10289272 0.19391231 -0.023963591 0.0943769 -0.07494602 0.12104902 0.13781078
0.08118692 -0.07863815 0.086123824 0.08394705 0.11357465 0.16999075 0.054719616 -0.11105174
-0.033103846 0.1608576 -0.026753617 0.11055336 0.18172793 0.141383 0.17833504 0.1321892
0.0054183505 0.10250816 0.0071435943 0.07685655 0.108926825 0.22235407 0.05895228 0.043277707
0.23422244 0.15651667 0.116590545 -0.09778439 -0.08188069 -0.14514294 0.18756463 0.052845884
0.14732543 0.20491767 -0.019839006 0.16329525 0.034440238 -0.02018037 -0.16582955 0.015032206
0.052292578 0.17888033 0.05727923 0.023017794 0.101623096 -0.02013971 0.04839414 -0.08125607

lstm.weight_hh_l0 f4 [256, 64]
00000000: c88a 2dbe 3ec2 d1bc 2190 cdbd 8fa1 043d
00000010: d884 0f3d 8b48 92bd 9022 a93c a744 d13d
00000020: 87d7 1ebe 6925 abbd 57cf 363d 7bee 393e
00000030: c043 843c 7b7d 9f3d 6817 62bd 3c83 36be
00000040: 7ee3 3fbe a7ba 44bd efa5 4c3e 2467 40be
00000050: 2d7e 723e 536e 17be c29b 87bd f92d 28bc
00000060: fe83 6f3d b001 ad3d 7b93 bf3d 8e11 52be
00000070: 364d 983c 78b5 41be 4c78 513e 93ad 4dbe
00000080: dd58 5b3c dd15 1a3b 5d38 923d 472e a73d
00000090: 01ed 01be 3a01 b2bd 8c9b b13d 08f4 1ebe
000000a0: 23ff d43d 73a6 3bbe 8695 e9bd 23a4 03bd
000000b0: 95e1 12be 3502 0c3e f556 913d a6a7 d6bd
000000c0: 40b2 a13d e2bf 4c3c 31c8 143d 7c7a fc3c
000000d0: ca0a 393c b196 0d3e 8ac7 6a3e eab6 143d
000000e0: 809d 193e 24dc 3f3d 9115 babc 083e b23d
000000f0: 0a14 9b3c fa4b 993c a296 be3c 0805 823d
00000100: daef 28bd 0a1e 903d c24b e3bd 875e 1c3e
00000110: 8af6 193d 3b2b 6c3d adb0 d4bc 6d3f cf3c
00000120: 647d 0fbd 4deb 93bc c76b 12bd dbc8 653d
00000130: 4ec2 213d 041c a83d d231 94bd 6cc4 053e
00000140: 68bb 13be 98d6 0a3d df59 64bd d0a8 313e
00000150: 6a23 ec3d 352b be3c a9ab fbbd 26db fa3c
00000160: 1a1c 05bd 0674 7fbd 5efc 4b39 f5f1 83bd
00000170: d49d 503d d4c6 963d af71 26bd e2dd 24be
00000180: d331 ba3c 5ac0 9c3b dad4 12bc 18ad 763d
00000190: 3bee babd 58e5 d9bd 3804 e23d 6117 a1bd
000001a0: a0ea 023c ca1f 8fbc c14a a6bd 3720 c3bd
000001b0: 3424 a93d 60cb fb3d cd53 993d 2e30 c9bd
000001c0: f4f1 05be 8237 52bd 4912 02bc ded6 0d3d
000001d0: 8cff 94bd 30cb 80bd 253b 98bd b1aa 183d
000001e0: 3e36 263e 0ca0 203e eff1 413d 1007 953d
000001f0: 216e 6b3d 3a34 613d 10ec 05be 716f 2d3d
00000200: 26bd cbbd 417e 21ba 0a82 0bbd 91d1 e7bc
00000210: c830 f83c 6cc8 ad3d e66f 28bd 0442 113e
00000220: b47f 08be 7459 30be 5e14 c23c 9011 7bbd
00000230: b78d 96bd cc89 c13d 2009 2b3e 3707 09bd
00000240: ec00 d5bb c78d 29be 27e0 6d3d 616a a33d
00000250: 2726 b2bb f1c3 283d 0512 27bd a8f8 babd
00000260: 0656 bb3d e508 3a3e 1719 1e3e 20de b7bd
00000270: ce65 543c 3a00 aa3d f2c2 8d3d a6c2 7c3c
00000280: 0e19 8f3d 5e91 bebc ebe9 333e 715e 4cbd
00000290: 4b3f a9bd b3a1 c0bd ad20 c1bd 0637 11be
000002a0: 095f ce3d 6a08 2cbd c540 233d a763 1abe
000002b0: a1f3 2eb9 a882 5d3d 668c aebd 40a1 a2bd
000002c0: 9189 d9bd 18b0 a9bc 7629 1abc 3f8a c23d
000002d0: 93d5 f2bc a253 a23d 068c 043e 7b12 b63d
000002e0: 2b77 26be 9a97 d0bd b8ea dcbc a93b 323d
000002f0: 1b90 c6bc cd99 413d 1a3a b6bc 09bd 133e
00000300: eb83 203d f965 1bbe a60c dcbd 459d 213d
00000310: ad17 15bd 51a7 28be 2984 01be c02d efbc
00000320: 0125 09be 5778 6abd c613 4ebd 75ae 273e
00000330: 4ce7 fd3d 0a4b 8fbd 4300 2e3d 0213 143d
00000340: e5f3 07bd 6e8a 38bc 292b c1bd 0dc9 92bd
00000350: 304d 5b3d 1997 683d 76a7 7cbd add1 18be
00000360: daac 833b e325 3a3c 9098 053e 6c40 94bd
00000370: fb52 1e3e 6101 c9bd 162a 023e 00ea 083d
00000380: ef21 2f3d 9688 293e 8569 d6bd cfdc db3c
00000390: 2d53 923d f3e6 72bd 604d 1dbe 6876 12be
000003a0: a55a afbd 2c8b edbd a5de 91bb 0850 00be
000003b0: 9cfa 1bbe e7c5 d3bc 6d98 29bc d25f cdbd
000003c0: 7aae d83d 0dab 22be 74aa 793d 2a44 ef3d
000003d0: ab81 d7b9 dfbf abbc 6a7a 7e3c 4f05 05be
000003e0: 11c4 c83d 6fd7 cabc 1864 8fbd a130 2c3e
000003f0: b27d 453e 5fd4 193d b9d1 9ebd 3736 bdbc
-0.16947472 -0.025605317 -0.10037256 0.032380637 0.0350388 -0.07142743 0.020646363 0.102181725
-0.15511905 -0.08356745 0.04463133 0.1815738 0.016145587 0.077876054 -0.055198103 -0.178235
-0.18739125 -0.048029568 0.19985174 -0.18789345 0.23680945 -0.14788179 -0.06621505 -0.010264867
0.058475487 0.084475875 0.093543015 -0.20514509 0.018591505 -0.18916881 0.20456046 -0.20085745
0.013387886 0.0023511567 0.07139657 0.081631236 -0.12688066 -0.0869164 0.08672246 -0.15522778
0.10400226 -0.18325214 -0.114054725 -0.032138955 -0.14343865 0.13672717 0.07096664 -0.10481195
0.078953266 0.01249692 0.03632373 0.030820124 0.011294076 0.13827015 0.2292768 0.036307253
0.15001488 0.0468408 -0.022715362 0.08703238 0.018930454 0.018712986 0.023265187 0.06348616
-0.041244365 0.070369795 -0.11098434 0.15270434 0.037588634 0.057658415 -0.025963152 0.025298798
-0.03503169 -0.018056536 -0.035747316 0.056099754 0.039491944 0.082084686 -0.07236065 0.1306321
-0.14426959 0.03389606 -0.05574977 0.17349553 0.11530192 0.023213962 -0.12288601 0.030622076
-0.032497503 -0.062366508 0.00019453603 -0.06442634 0.050931767 0.07362142 -0.04063576 -0.16100267
0.022728836 0.0047836723 -0.008961881 0.06022367 -0.0912747 -0.10639447 0.11035961 -0.07865787
0.007990509 -0.017471213 -0.08119727 -0.09527629 0.08258858 0.1229465 0.07486687 -0.09823643
-0.13080579 -0.051322468 -0.00793893 0.03462874 -0.07275304 -0.06288755 -0.07433156 0.03727216
0.16231629 0.15686053 0.047349866 0.07276738 0.057478074 0.054981448 -0.13078332 0.042342607
-0.099481866 -0.0006160476 -0.03405956 -0.028298171 0.030296698 0.08485493 -0.04112234 0.14185339
-0.13329965 -0.17221624 0.023691352 -0.061296046 -0.07351249 0.09450111 0.167027 -0.033454146
-0.006500354 -0.1655799 0.058075096 0.079792745 -0.005436677 0.04120249 -0.04078867 -0.09129459
0.09147267 0.18167455 0.15439259 -0.08977914 0.012963725 0.083008245 0.069219485 0.015427267
0.06987201 -0.023262676 0.17569701 -0.049894754 -0.08264025 -0.09405842 -0.094300605 -0.14181146
0.1007672 -0.04200021 0.03985669 -0.15077077 -0.00016684692 0.05407968 -0.085228726 -0.07940912
-0.10621942 -0.02071385 -0.009409299 0.094990246 -0.029642856 0.07926108 0.1294404 0.088902436
-0.16256396 -0.10185166 -0.026967391 0.043513928 -0.024238637 0.047265816 -0.022244502 0.1442758
0.039188307 -0.15175618 -0.107446 0.039456625 -0.036399532 -0.16470076 -0.12648071 -0.02919662
-0.13393022 -0.05724367 -0.050311826 0.16375144 0.12397632 -0.069967344 0.04248072 0.03615094
-0.03319158 -0.011263473 -0.0943206 -0.07167254 0.05354041 0.056784723 -0.06168314 -0.14923735
0.0040184082 0.011361572 0.13046479 -0.0723885 0.15461342 -0.09814716 0.12711367 0.033426285
0.04275697 0.1655601 -0.10469345 0.026838688 0.07144771 -0.05930228 -0.15361547 -0.14302981
-0.08562211 -0.115988106 -0.00445159 -0.1253053 -0.15232319 -0.025851203 -0.010351283 -0.10028042
0.10580154 -0.15885563 0.060953572 0.11682923 -0.00041104606 -0.020965515 0.0155321155 -0.12990306
0.09803022 -0.02476093 -0.07001513 0.16815425 0.1928623 0.03755605 -0.07754845 -0.02309714

lstm.bias_ih_l0 f4 [256]
00000000: 968b 1c3e 2d8a cdbd 1ad2 1c3d a070 ef3d
00000010: 407d 8b3d 55a4 013e 328b 89bd e5a3 20bd
00000020: 11f3 fa3d dd4f f13c ebdd b13d b7e8 0bbd
00000030: 70a8 083c 0f1a f6bc 9751 a13d 7211 ab3d
00000040: 3625 a13d 6cd0 8d3d 7e57 e83d ea31 3c3e
00000050: 2332 cf3d 76e4 3dbd 6e8d 603b a136 b53c
00000060: c076 233e 1f28 2a3e 9b2c e5bd 4c3c 153e
00000070: 0edf 7a3c 6a8a 0ebd c1f4 763d ec61 fb3d
00000080: cd39 293d 1ff8 82bd 2d68 123e 4617 d13d
00000090: c154 11bb 8b1f 863c 87de 6fbd 9d2c cc3d
000000a0: 3d26 863c 34fa 933d 6a2a fe3d 8566 a5bd
000000b0: 5829 843d a1ea 5a3d f769 c73d 1457 c53c
000000c0: 2211 063d ad21 5abb 99c1 9e3d 7c3e b63d
000000d0: 5a12 8b3c bcc5 5cbd 7889 99bd 2085 893c
000000e0: b7fc 943d 53d0 113d 1e70 a23c fd13 a63d
000000f0: 27c4 803d d3da 983d 561a 53bd bd96 5d3d
00000100: 680e 273d bccb b73d c47f 3bbd a15e 373d
00000110: 784a ddbd 8ad6 233c e712 a73d 5d0a 05bc
00000120: 846b 303d 2b56 2b3e a19f 803d 9744 73bc
00000130: e54e 073b 2daf 35bb b986 e43c 1647 7c3b
00000140: 9a7b 1e3d edcd ccbc 34a3 003d abcb adbd
00000150: 56fa e03d 0bc5 b23d d082 c03d 5092 a93c
00000160: dc77 5fbc 9c5a 0b3d 5d12 9abd b097 d2bd
00000170: 41e8 a63c 2e60 f3bd 5d94 a63d 871d 9abd
00000180: 45ed 99bd ed11 32bd 6f9f 713c c803 2dbd
00000190: df3d 20bc 80c5 383d 1806 aebd 7d8e edbd
000001a0: 387f 8cbd 64b6 003e 34b9 5ebc 60a3 893c
000001b0: 7bd5 8f3d ed67 a7bd 45c5 8f3b 963c d73d
000001c0: a54d 9c3d 75ac 983d f2bd 6dbd 29b4 b9bd
000001d0: 5a8d 21be 778d 8dbd 7c6d 313d cece 7f3d
000001e0: cf5e 933c 2a18 f53c 537e 903d 06f8 e23b
000001f0: b86d b5bd 4db4 05bd 43bd 17be 1fba 8fbd
00000200: 7ff2 c2bd 8ca1 1abd 5009 f73d a21a 933c
00000210: d443 013e 2101 713d 6074 03be e4b0 96bd
00000220: 93eb 5abc 5753 993d 0b7c a0bd d1d4 063d
00000230: 6b89 30bc c140 063e ff29 343d 1182 1a3c
00000240: d1ff 95bd 629a 2a3c 00a5 723c 493e 75bc
00000250: 02da 983d 828b b63c 1fec e43d 60ff 8c3d
00000260: 32bb c33d 1a9d 12be ed12 dc3d 3470 3cbe
00000270: 4542 98bd 2e26 c6bc 3d1b ad3d 5540 e5bd
00000280: 3b4d 153e c291 a43d 790f 86bd 7983 7fbd
00000290: d519 0cbe ee82 cbbd a193 3cbd 5b28 543d
000002a0: 8067 b93d aae1 06bb 3635 9fbd 3f08 4ebd
000002b0: 61c4 0f3e f704 ff3c 447d c63d 8bd0 043d
000002c0: 6aba 8a3b 3099 ddbd 5dd5 dabd db60 f5bc
000002d0: 32f2 96bd 2256 11be f6e1 883d 2373 c1bc
000002e0: e3bd 80bd 51ce 80bd f267 99bc 5e08 ad3d
000002f0: 4c6c 583b 2b92 e53a 7c4f 0c3d 6b71 66bd
00000300: e013 6b3d b7c9 9cbc f520 1d3e e23e fc3d
00000310: 42ed 333e bb39 f73d c0ab 453a bdff ee3d
00000320: 0e5c a23b bbc3 423e eaba 083e 8673 133d
00000330: 6156 af3d 0916 b03d 48d3 223e 8d32 a43b
00000340: dede 1b3e 1c42 d8bc 9eae ef3d 5350 bc3d
00000350: 1fe7 12bb 77c0 8ebc ca6b 9bbd 7bee 083e
00000360: 4fd5 1e3d aa9c 4d3e a76d 253d 402d c2bc
00000370: c79b a3bd 553d 85bb 3e11 513d c472 24bd
00000380: 19de ec3d 95ca 4f3d 342a fd3d 4717 91bc
00000390: e34b b63d d0dc c5bd 3b2c 273e 3177 2b3e
000003a0: d547 82bd c5ce e13d b6b7 9c3c 5e06 003e
000003b0: 8663 123e c9c5 af3d 617d e9bd 70a8 37bd
000003c0: a4f3 a7bd 55ee 533d aa5c 1f3d 7041 f63d
000003d0: b391 043e 8910 37bd 1982 c43d e140 17bd
000003e0: e820 f73d 0590 39bd 4ccd 2cbd 2f25 21bd
000003f0: dc6f af3d 72d3 c03d a214 633d 91dc ee3d
0.15287623 -0.100361206 0.038286306 0.116914034 0.06810999 0.12660344 -0.067160025 -0.039218802
0.122533925 0.029457027 0.086849056 -0.03415748 0.00834094 -0.030041723 0.0787689 0.08352937
0.078684255 0.06924519 0.11344813 0.18378416 0.10116985 -0.046360455 0.0034263986 0.022120776
0.15963268 0.16616867 -0.111901484 0.14573783 0.015311969 -0.03479997 0.06029201 0.122745365
0.04131489 -0.063949816 0.14297552 0.10209517 -0.0022175761 0.016372463 -0.058561828 0.09969447
0.016375655 0.07225457 0.124104336 -0.08076195 0.06453198 0.053446416 0.09737008 0.024089374
0.032731183 -0.0033284232 0.077517696 0.08898637 0.016976524 -0.05389951 -0.07496923 0.016787112
0.07274764 0.035599064 0.019828852 0.08109281 0.06287413 0.074636124 -0.051538788 0.054098833
0.040785223 0.08974406 -0.045776144 0.04476798 -0.108052194 0.009999881 0.08157902 -0.008120147
0.043071285 0.16732089 0.06280447 -0.014847896 0.002064639 -0.002772282 0.027896272 0.003849452
0.038692094 -0.025000537 0.031405643 -0.08486112 0.10985248 0.08728989 0.093999505 0.02069965
-0.013639417 0.03402196 -0.07523034 -0.10282838 0.02037442 -0.11883579 0.08133767 -0.07525163
-0.07515959 -0.043474127 0.014747485 -0.042239934 -0.009780376 0.045110226 -0.08497256 -0.11599443
-0.068602026 0.12569577 -0.013593961 0.016801536 0.0702314 -0.08174119 0.00438753 0.10509603
0.07631997 0.074547686 -0.058042474 -0.09067566 -0.15776578 -0.06911748 0.043317303 0.062453084
0.017989544 0.029918749 0.070553444 0.0069265394 -0.08858818 -0.03264265 -0.14818291 -0.07017922
-0.09518909 -0.03775172 0.12062323 0.017957035 0.1262353 0.058838967 -0.12837362 -0.07357958
-0.013361829 0.07486599 -0.07836159 0.0329178 -0.0107749505 0.13110639 0.043985363 0.009430424
-0.07324184 0.010412784 0.014809847 -0.014968463 0.07463457 0.02228332 0.11177849 0.068846464
0.09557189 -0.14317742 0.10745797 -0.18402177 -0.07434515 -0.024188127 0.08452461 -0.11193911
0.14580242 0.080356136 -0.0654592 -0.06238124 -0.13681729 -0.09937082 -0.046039227 0.0517963
0.09052944 -0.0020581284 -0.07773821 -0.050300833 0.14039756 0.031130297 0.09691861 0.032425445
0.004233648 -0.10820234 -0.10685227 -0.02995341 -0.07370414 -0.14193013 0.06683724 -0.023614472
-0.06286218 -0.06289352 -0.018726323 0.084488615 0.0033023534 0.0017514875 0.03425549 -0.056260508
0.057392 -0.019139154 0.15344603 0.123166814 0.17570975 0.12071558 0.00075405464 0.11669872
0.0049548214 0.19019978 0.13352552 0.035998844 0.08561397 0.08597953 0.1590091 0.005010909
0.15221736 -0.02639871 0.117032275 0.09195008 -0.002241559 -0.017425759 -0.075889185 0.13372223
0.038777646 0.20079294 0.040387776 -0.023703218 -0.079886965 -0.0040661492 0.051041834 -0.04014851
0.11565799 0.050730307 0.12361565 -0.017711295 0.08901193 -0.09661257 0.16325466 0.16744687
-0.06361357 0.11025766 0.019130569 0.12502429 0.14295778 0.085826464 -0.11400867 -0.04483837
-0.08200768 0.051740963 0.03890673 0.120242 0.12946205 -0.044693504 0.09595127 -0.036927108
0.12066823 -0.045303363 -0.042187974 -0.0393421 0.08566257 0.0941533 0.0554396 0.116631635

lstm.bias_hh_l0 f4 [256]
00000000: 97c2 643d 0bfe ad3d 0c86 99bd 30f4 043e
00000010: 68f5 273d dd4c f03d a22a 623a becb e23d
00000020: 7643 0d3e 46fd 053e c541 c03c 1dab 473e
00000030: a8e6 153e 5e3d 273d 0576 2e3e eb34 c53b
00000040: 4c69 19bb 664b 1c3e de75 24bc 53c9 153e
00000050: 4166 fe3d 3ca4 f83d 97f8 053e c512 68bd
00000060: 7486 a53c c280 463b e155 a33d ca44 d93d
00000070: ccc9 193e 352f 87bd ebf0 31bd 566e f43d
00000080: 6cfb 193e 16c5 143e ae53 2c3d 807e 02bd
00000090: 6565 513d e268 233e 3956 2c3e d95c 493d
000000a0: 0906 f2bc 3af8 cb3d bd2d 973c 0bfe ab3d
000000b0: 6f32 013e a6f8 4b3c 088a 6c3d 2edf 89bd
000000c0: 7db4 b03d 9261 ec3d 9da4 f83d a606 66bd
000000d0: beb0 6dbd fe01 e83d 2faf babd ef76 c33d
000000e0: 939c 953d 4611 cd3d 9d14 38bc b608 74bd
000000f0: 3d10 e8bb 8ed1 313e c697 39be 15c6 bcbd
00000100: 3395 87bd 02c8 85bd 82ff a1bd f6e1 fe3d
00000110: 08a4 b13d 85b8 f03d e5ee 6bbd 5105 c63d
00000120: 4d02 293c dfdd 273e 9c7e f03a 1c5d 043e
00000130: 17c5 81bd 84b1 b4bc 8bb4 083e 7aa9 663d
00000140: bed3 543d 7105 7d3d 9b89 323d f143 c13d
00000150: 37b1 0c3e 4d68 1bbd a78b 1d3d 87ff 3b3d
00000160: 1eea bdbd 6b8e 813c 3d02 41bd 4f3d 3a3c
00000170: 7931 df3c 47e2 3cbd 6c71 9ebd afad 093e
00000180: 11f1 953d a8ff 213e 2c21 2e3d b912 b53d
00000190: 7d91 0e3d 8577 d03d ec32 683c 484f 4dbd
000001a0: 63a1 e03c f083 d03d 04cb 593d f325 5abd
000001b0: caf4 203e ef49 0f3d 32d8 013d ecc1 2fbd
000001c0: 9be5 f7bd b978 9e3d e290 9a3a e3d0 a2bd
000001d0: cac3 f5bd 5591 333d d4f9 243d 3f12 e2bd
000001e0: 060d 42bd d36d 58bd 5d4a dc3d 9408 a93d
000001f0: 6928 223d c4d2 cfbd b6f8 d73c b7a0 8e3d
00000200: 3133 b5bd 03ff d8bd 1db8 0cbd db33 ab3d
00000210: fbd2 b23d 5ef0 273e 8952 04be 9a53 efbd
00000220: 64bf e6bd 83ee bd3d dfd0 3ebc 8167 f53d
00000230: eb4b eebd 8550 1f3e ac21 10be 07a1 84bc
00000240: 090b 8d3d dd60 77bd bd83 d63d 89a1 1cbd
00000250: 6de8 f33d b8cc fcbc b142 9fbd 1791 283d
00000260: b27e 8abb 6806 693d 9be1 47bd 120b 2abe
00000270: dda7 cb3d 037e 2fbd 189b a73c b666 0bbe
00000280: e4bb 3f3e 6601 1b3e a699 123e d707 73bd
00000290: b7ee 963d 3669 883d 0e50 d1bc d8da e8bd
000002a0: f573 073e f0ae 1c3d 4f5b f9bd b818 623d
000002b0: 15ab 403d 7a27 c03d 6a69 b73c 6d30 e03c
000002c0: 2d3d 01be d289 5dbc b2fb 343d 7d5b 99bd
000002d0: 952b 953d 50ab bb3c f5f8 fd3c 7120 123e
000002e0: aa79 b7bc 192f 33bd 3d0a c3ba e9c2 153e
000002f0: c0e1 fc3b db71 183d 31d3 e23d f4e6 9c3d
00000300: 3017 363e 656a 0c3d f34c acbc 99e0 c43d
00000310: ed79 3d3e 80e2 163e 2228 3ebc e643 5b3e
00000320: 4891 353d e97a 983d 4af7 f23b d769 063d
00000330: 5b79 b63d d51b 063e 0c2e 133e 149a c93d
00000340: a578 7f3d 11c9 9cbc 98cc a2bd 70a6 dd3c
00000350: 9c0c a03d 1305 57bd 8ad6 733d 60c2 8d3d
00000360: bbde f83d 90ab 0c3c d45d ee3b 2b77 083e
00000370: 33ba 893d b725 b73c e4f0 2d3c 5dfc e73d
00000380: 104a 87bd 92bb 823d d9a8 2e3c 6f07 a1bc
00000390: e98c 133e ab0c 7bbd 706d 103e 858e 88bc
000003a0: 1125 333d 6bef 0c3e c68d 453c 900c 3f3d
000003b0: 9ce1 3cbc 35cb 2b3e 54d5 263d ded9 0b3c
000003c0: 34dc bf3d c07e a83d 65a7 b63d c31a 39bc
000003d0: 500e a83d 2e66 143e 61d4 54bb ab8a 293e
000003e0: 520a 233d 3ea9 903d fac6 903b 7e7f 8ebd
000003f0: 3e01 1a3e 1664 30bd c9bd 1f3e a9ef 033e
0.055849638 0.084957205 -0.074962705 0.12983775 0.041005522 0.117334105 0.00086275686 0.11074017
0.13795266 0.13084897 0.023468861 0.19498868 0.1463877 0.04083001 0.17037208 0.006018271
-0.002340871 0.15263137 -0.010037867 0.1462758 0.12421847 0.121407 0.13083111 -0.056658525
0.020205714 0.0030289148 0.079753645 0.106088236 0.15018386 -0.06600801 -0.043442648 0.119351074
0.15037316 0.14528307 0.04207199 -0.03185892 0.051122088 0.15957978 0.16829766 0.049160812
-0.029543893 0.09959455 0.018454427 0.08398064 0.12616895 0.012449419 0.057748824 -0.06732021
0.086281754 0.115420476 0.121407725 -0.056158684 -0.058029883 0.11328505 -0.09115445 0.09544169
0.07305255 0.1001306 -0.011235383 -0.05957862 -0.007082014 0.17365095 -0.18124303 -0.09217469
-0.06620254 -0.06532289 -0.079100624 0.124454424 0.086738646 0.11753944 -0.057600874 0.09668983
0.01031549 0.16393231 0.0018348279 0.12926143 -0.0633642 -0.022057302 0.13350122 0.05631397
0.051959746 0.061772767 0.043588262 0.09436787 0.13739477 -0.037941266 0.03846326 0.045897987
-0.0927317 0.01581498 -0.047121275 0.011367156 0.02724527 -0.046114232 -0.07736477 0.13445161
0.073213704 0.15820181 0.042512104 0.08841462 0.034806717 0.101790465 0.014172297 -0.050124437
0.027420705 0.10181415 0.053172126 -0.053258847 0.1571838 0.034982618 0.03170032 -0.042909548
-0.12104341 0.0773787 0.0011792446 -0.07949998 -0.120002344 0.04383977 0.040277317 -0.110386364
-0.0473757 -0.05283911 0.10756371 0.08253589 0.03958932 -0.10147622 0.026363712 0.06964248
-0.088476546 -0.105955146 -0.03435527 0.083595 0.087316476 0.16400287 -0.1292211 -0.116858676
-0.112669736 0.09274008 -0.011646478 0.119826324 -0.11635574 0.1555806 -0.14075345 -0.016190065
0.068868704 -0.06039511 0.10474346 -0.03823999 0.11909566 -0.030859336 -0.07776392 0.041153993
-0.004226529 0.056890875 -0.04879914 -0.16605785 0.09944127 -0.042844784 0.020459697 -0.136134
0.18724018 0.15137252 0.14316425 -0.05933365 0.0736975 0.066606924 -0.025550868 -0.11369866
0.13227828 0.03825277 -0.12175619 0.055199355 0.047038157 0.093825296 0.022389133 0.027366841
-0.12620993 -0.013521628 0.044185348 -0.07488153 0.07283703 0.022908837 0.031002501 0.14270188
-0.022396881 -0.043746088 -0.001488037 0.14625134 0.007717341 0.037217956 0.11075438 0.07661238
0.17782283 0.034281153 -0.021032786 0.09613151 0.18503542 0.1473484 -0.011606248 0.2141262
0.044328004 0.07445318 0.007414733 0.03281578 0.089098655 0.13096555 0.14373034 0.09843841
0.062370915 -0.019138845 -0.079491794 0.027056903 0.07814905 -0.052495074 0.059530772 0.0692184
0.121518575 0.008585826 0.007274369 0.13326709 0.06724968 0.022356851 0.010616515 0.11327431
-0.06605923 0.063834324 0.010660374 -0.019656865 0.14409222 -0.061291378 0.14104247 -0.016669521
0.04373652 0.13763206 0.012057727 0.04664284 -0.011528399 0.16776736 0.04073079 0.00853583
0.09368172 0.08227301 0.08918647 -0.011297884 0.08205855 0.14492103 -0.003247522 0.16556804
0.039804764 0.070635304 0.004418251 -0.06957911 0.15039536 -0.0430642 0.15599741 0.12884392

lstm.weight_ih_l1 f4 [256, 64]
00000000: 6ef1 1b3e dd65 eebd 8ddb f2bd 4d62 ccbd
00000010: 76fd 32bd 6a29 aebc db07 a73c ad11 c7bd
00000020: cef8 e7bc 17a7 2e3e 7791 60bd e122 19bd
00000030: 6fad a53d d758 30be b4f5 313e abef ecbd
00000040: 546e b43d dd45 bcbd 1b7e 973c c2e3 773c
00000050: becc 90bb a781 36bd 1cdf 1dbe 42a7 7ebd
00000060: 23c5 47bd e484 163e 31af 3a3e 85bc 16be
00000070: b767 3f3d 8264 61bd 89ab e23d c1e5 79bd
00000080: 8a72 823c 7616 e43d c67c 19bd 3137 cf3d
00000090: c1d4 84bd 7498 09bc 0d9f 923d ea46 0bbe
000000a0: 5bff edbb 1561 6dbd 78df 623d 6279 d1bd
000000b0: 6da1 12be 29d5 f6bd b4ec bb3d a55a 01be
000000c0: 9429 c9ba 8b24 3fbd 45d8 833d d648 7fbd
000000d0: 3977 56bd 1621 93bd b6f2 cebd 1b01 7bbd
000000e0: b393 9c3c 6dd6 433c 66c4 eb3d b3f9 a4bd
000000f0: e8c7 443e 4cf2 943d 91ce ad3c 2034 173e
00000100: 8cd1 c4bc b9ae 72bd 8977 9a3d 9316 32bd
00000110: 2b68 d7bc fbaf d43d 8f11 54bd 9354 863d
00000120: 914d bbbd 9278 6c3d 776c 8d3d be3c 883d
00000130: bc60 853d b9a0 0b3e a7f8 81bd 3957 83bd
00000140: 686c e6bc 2a0e 2cbc cde0 36bc 5919 45bd
00000150: 42ea acbc 198b bd3c 106a 8c3d 61b1 ae3d
00000160: 2977 203c b3d7 60bd f081 db3c 4a47 02be
00000170: 950f bd3d a591 bdbd 09d8 183d 1f61 abbd
00000180: a9f7 52bd f6ed 8abd 58c0 44bd 1e78 793d
00000190: cee5 2dbd 2718 b6bd 282b 253d fa0b d13b
000001a0: 14ef 4f3c 18d3 34bd e9f2 8c3d d30a 3d3d
000001b0: 2c47 423b 33e4 87bd ef5a 3fbc 2709 553d
000001c0: d117 90bc 54e5 55bc b00f 97bc 967f ec3c
000001d0: 01b5 703d fa75 a93d 7457 913d f8da 02be
000001e0: 18c8 1a3c a114 00bd ddeb 343c 6a5e 8bbd
000001f0: 64e8 bb3d ddd9 f8bd 4c94 9e3c 1581 81bd
00000200: 429e 0b39 c4f3 833d 0e74 143d 59eb 163e
00000210: 3087 8abb ec03 cdbd 9f2d 44bd 9479 b33d
00000220: f206 c23c ef1d f23c 3a89 5dbd 75da c4bd
00000230: 91c4 f03d 1a14 853d 305b 41bd 0dff ebbd
00000240: a846 eebc 0cf3 203b e109 9b3d efdf c4bd
00000250: a2da 64bd 699b 2ebd 68b3 b7bd cf66 57bc
00000260: 2118 25b9 5b2a 163e ca87 a83d bb5a f9bc
00000270: de72 bdbd 9375 9d3d f4ca 263d 25d2 0ebe
00000280: 0e7f c63d 017b cb3d 8492 5dbd f033 59bd
00000290: 0ff1 64bd b1a9 583d 52ff f8bd 8522 adbd
000002a0: c30a d13d 59dd 91bc 2af3 5e3d ff9f dabc
000002b0: 0e89 8c3d beae e63d cbac 433b 8f8c ccbd
000002c0: 63cb d73c 3a42 6f3b d24e d1bd 181b fa3c
000002d0: 17e8 a6b9 ff1d a53d cb85 753c fcb2 023d
000002e0: 0036 9e3d ddb9 263d 89f1 9abc 5e81 afba
000002f0: 7b9e 3d3c dea9 a9bd b72e d2bd 9f93 b6bd
00000300: ebf9 f43d 04db a4bc 9a4b 79bc 6915 483d
00000310: 1448 bab8 4e9b 77bd 8607 9dbd d8bc 663d
00000320: ba6d 14bc e779 b13c 112b 8c3d 0246 913d
00000330: 9b99 3e3e bfe5 dabc c6d4 de3d a80d 743d
00000340: 8f18 40bd 32bc b4bb f816 bc3d 2346 1dbe
00000350: 4d77 003e bad9 09be 43ea ffbd 86d1 463d
00000360: 4c2d c33c 42b1 043e 697e 60bc a758 9abd
00000370: b6b3 a83c d8a6 60bd f85f 403e 887f 40bd
00000380: 0905 073e 2f09 d03d 2f65 81bc 9538 afbc
00000390: 0b9b 223d 84a8 00bc 63ce 183e 690a b0bc
000003a0: 2a73 ef3d 8bbe dc3c 014c d9bd 3ddd f6bd
000003b0: 789b 9abb 2db1 543e bd8b e6bb e024 32be
000003c0: 40f2 afbd 1fac 9abd 9147 853d 2538 323e
000003d0: bacc b7bd a52b 88bc 51da 723e 6c0e 8fb9
000003e0: 1168 5a3c f54f 563b ddcf e6bd 4364 f53d
000003f0: 04f0 0cbc 97c4 683d 166a 2fbc 5ba3 cf3d
0.15228817 -0.11640523 -0.11858282 -0.09979687 -0.04369875 -0.021259982 0.020389488 -0.09720168
-0.028316882 0.17055927 -0.054826226 -0.03738678 0.080897205 -0.1722139 0.17378885 -0.115691505
0.08810106 -0.09193013 0.018492749 0.015129985 -0.0044189384 -0.04455724 -0.1541714 -0.06217123
-0.04877199 0.14699131 0.18230893 -0.14720352 0.04672977 -0.055027492 0.11067874 -0.061010126
0.015923757 0.111370966 -0.03747251 0.10117949 -0.06485892 -0.008398164 0.07159243 -0.1360127
-0.0072631068 -0.057953913 0.055388898 -0.1022823 -0.14319392 -0.12052376 0.09176007 -0.12632234
-0.0015347474 -0.04666571 0.064377345 -0.06232532 -0.052359793 -0.07184045 -0.10104887 -0.06128035
0.019113397 0.011952979 0.115120694 -0.08055439 0.19216883 0.07272777 0.021216663 0.14765978
-0.024025701 -0.05924866 0.07542331 -0.04347856 -0.026294788 0.10385128 -0.051774558 0.065591
-0.09145654 0.057732172 0.06905454 0.06652211 0.06512591 0.1363553 -0.06346255 -0.06413121
-0.028127864 -0.010501424 -0.011161995 -0.048119877 -0.021107797 0.023137616 0.06856167 0.08529926
0.009794035 -0.054893207 0.026795357 -0.12722507 0.09231488 -0.09256295 0.037315402 -0.08368134
-0.05150572 -0.06783669 -0.048034996 0.06090557 -0.042455487 -0.088913254 0.04032436 0.0063796015
0.012691278 -0.044146627 0.06882269 0.0461529 0.0029644473 -0.066353224 -0.011679395 0.05201068
-0.017589482 -0.013055164 -0.018440098 0.028869431 0.05876637 0.08274455 0.070967585 -0.12778842
0.00944712 -0.031269673 0.011042562 -0.068051174 0.09175184 -0.12150929 0.019357823 -0.063234486
0.00013315029 0.06442979 0.03624349 0.14738216 -0.0042275414 -0.10010514 -0.04789507 0.087634236
0.023684952 0.02955529 -0.054085948 -0.0961198 0.11756242 0.06497975 -0.047206104 -0.115232565
-0.029086426 0.002455893 0.075702436 -0.096130244 -0.055872567 -0.04262868 -0.08969766 -0.01314707
-0.00015744615 0.14664595 0.08229025 -0.030438771 -0.09250425 0.07688441 0.040720895 -0.13947351
0.096922025 0.099355705 -0.054094806 -0.053028047 -0.055893954 0.052896205 -0.121580735 -0.0845385
0.10207131 -0.017805742 0.054431118 -0.02668762 0.068620786 0.11263798 0.0029857631 -0.09987747
0.0263421 0.003650798 -0.10220112 0.030530497 -0.00031834908 0.08062362 0.014985512 0.031908974
0.077251434 0.040704597 -0.018914001 -0.0013389995 0.011573429 -0.08284353 -0.102628164 -0.08914875
0.119617306 -0.020123966 -0.015215779 0.048848543 -8.882597e-05 -0.060450844 -0.076674506 0.05633244
-0.009059364 0.021664573 0.06844152 0.07093431 0.18613283 -0.02672088 0.10880427 0.059583336
-0.04689842 -0.0055155987 0.091840684 -0.15358786 0.1254551 -0.13461962 -0.12495854 0.04853966
0.02382531 0.12958243 -0.0137020135 -0.0753644 0.020593505 -0.054846615 0.18786609 -0.046996623
0.13185515 0.10158002 -0.015795318 -0.021389285 0.03969864 -0.007852677 0.1492248 -0.021489339
0.11691888 0.026946327 -0.106102 -0.120539166 -0.0047182404 0.20770712 -0.007035701 -0.17396879
-0.085911274 -0.07552361 0.06507791 0.1740423 -0.08974595 -0.016622374 0.23716094 -0.0002728583
0.013330475 0.0032701467 -0.112701155 0.11982014 -0.008602146 0.056828108 -0.010706445 0.101385795

lstm.weight_hh_l1 f4 [256, 64]
00000000: 08b4 0e3d ee5d e93d b09b a63d e177 0abd
00000010: 37fe 3e3d d0b2 46bc 435b 4fbd 511d 023d
00000020: a5e8 bd39 f389 1a3d 1864 02be 2734 8b3d
00000030: 8caf 583d f461 053e 647e 06be b794 08be
00000040: a4ba cfbc 22dc bd3d 1fc9 afbd 6406 843d
00000050: 5252 bbbc 74f2 54bd 499a a1bd 70b0 8d3d
00000060: 7784 1ebe 7440 5a3b 5f3b bcbc 7c61 7abd
00000070: 1d48 5f3d 8166 d43c 24eb 183d d57a a03d
00000080: 0f76 c7bc 4ab6 153e 8b35 01be e311 fb3d
00000090: 936d edbc 2d57 d6bd b982 1bbe 01c3 84ba
000000a0: 3a6c e2bd 9f77 b0bd e8f2 50bc 8d34 27bc
000000b0: 8e82 bfbd 7363 e7bd b29d 1cbc 6183 17be
000000c0: f029 6fbd 8f7c 10be 41f9 d43d 6efe db3d
000000d0: efe4 133d 7b8c a7bd 8d18 fdbd 8961 9cbd
000000e0: 15e8 fe3d fceb 313d 9ae2 8cbb 33aa 19be
000000f0: dfe8 fcbd dc73 8ebd 54ca 39bc e9cf ccbd
00000100: b808 523d 8a9e ce3c 434a 0c3d 0d58 0d3e
00000110: 30ef ba3d eaf7 89bc 645d 293d b8b0 113e
00000120: 4986 29bc 0b8b a9bd 891b 89bd 4e0c b63d
00000130: 1a21 8ebd 82c5 0f3e b514 ec3b 969f 6e3d
00000140: c16d 4a3d e0e4 013c 5db6 3abd 3313 2ebd
00000150: 6d8a 8cbd cd59 4b3b 009e 04bd c44c bbbc
00000160: b725 0c3e a1e4 423d e721 e5bd 5887 c23d
00000170: 42cc 333d c51c 2abe 3b31 b5bd 6571 8a3d
00000180: 2bdb 093d 195f 783d 0f14 9abd 3524 f83d
00000190: 722c ed3d 3459 06be d701 903d f57e a33b
000001a0: 3c81 2f3d 8283 6abd 7b13 843c 87e6 a53b
000001b0: b474 0a3e 3e7d 4d3d c0be 12be 6855 443d
000001c0: 1822 023e 5899 843d 1925 21be ab59 5dbb
000001d0: 10df 523d 861d 103e 3bc4 e9bd f4b4 803d
000001e0: e111 c43d f06f f3bd 4f77 04bd f201 9fbd
000001f0: e170 643d 0a16 b03d 05ee d53d 57f1 cfbd
00000200: ebad 703c 7fd7 c63d e7c9 1a3d 0bed 523d
00000210: 9230 a13d f177 bf3a 6603 ea3c e165 43bd
00000220: 84ff c8bc 550e 263d 38f0 f53d 4cc4 a23d
00000230: 6d00 7b3d b8ee ee3d 45fd f8bd 46a1 693d
00000240: 47a3 a53d ff10 983d 8097 b13d 4bef 0e3d
00000250: f33e 05be c990 01be 99e7 40bd 66b9 aa3d
00000260: a908 e03b ed0e e83d aa71 363d cb51 bd3c
00000270: 1f2f 09be 5b43 00bd 4601 1dbd 13a0 a2bb
00000280: fb13 0fbe 947a 9cbc 9aab dc3d 4a5b 91bc
00000290: b18a 8fbc 9166 b53d b268 a43c 6e59 76bd
000002a0: a3d3 1abe 3714 6cbd 429b 8c3d 475e 73bd
000002b0: 8468 e33d b799 88bd 4ce4 383d 5c1a c33d
000002c0: a139 193c 6f35 0d3e 50ba 75bc 6be2 0a3e
000002d0: 7ef2 bf3d 8675 cd3c 0260 99bc 8b40 14bd
000002e0: b72c f2bc 5d4d f83c d912 22bd 7436 273d
000002f0: 17d1 f2bd 026a b5bc 4379 9a3b 8045 dfbc
00000300: 2fed 193d 6921 1f3e 2daa 503e 2210 89bd
00000310: 5151 59bd b16e 6abc 694e 08be 55e2 36bc
00000320: dfca 1cbe f4dd ecbd caf9 9c3d 5461 553e
00000330: 3c57 a9bd 1e59 cf3b e286 25be 6b44 143d
00000340: 004d 313e bb9f 09be c619 013e 1256 08be
00000350: f504 ffbd 2b17 0cbe 3c13 463e 971c d03d
00000360: ac11 2f3d 0cc4 0cbd b6cc a4bd 2c50 d93d
00000370: c74a 54bd 1584 75bd 504b 54be 6ab9 233e
00000380: 44d1 343d 3e7e 5abc 70a1 553d a7aa 5a3d
00000390: d0ee 0c3e 6485 8dbd 52c3 45be f979 32be
000003a0: 43b4 03be d759 6ebd c272 efbd 7823 453c
000003b0: 059c f1bc 39de 6f3d 591b efbd 2ac6 b7bd
000003c0: 5324 0c3e 150d 213d e915 eebd 7caf 893d
000003d0: ec32 d5bd 99d5 22bd 7082 013d 020b 87bd
000003e0: b77e 363e 7d01 293d 86cc de3c cfcb 843c
000003f0: 329f 25be e305 853d 08ff 3cbc d717 2f3d
0.03483966 0.11394869 0.08135164 -0.03380573 0.046629157 -0.012127593 -0.050624143 0.03176624
0.00036222223 0.037729215 -0.12733495 0.06797057 0.05290179 0.13025647 -0.13134152 -0.1333798
-0.025357552 0.092705026 -0.08583283 0.064465314 -0.022866402 -0.051989034 -0.07890756 0.069184184
-0.15480219 0.0033302577 -0.02297753 -0.061128125 0.054512132 0.025927784 0.037333623 0.07835928
-0.024348287 0.14620319 -0.12618081 0.12259271 -0.028982913 -0.10465846 -0.15186585 -0.0010128916
-0.11055799 -0.08616566 -0.012753226 -0.0102054 -0.09351073 -0.11298265 -0.009559082 -0.14796211
-0.058389604 -0.14110015 0.10399104 0.10741888 0.036107 -0.081810914 -0.12358198 -0.07635791
0.1244661 0.043437943 -0.004299474 -0.15006332 -0.12349104 -0.06955692 -0.011339743 -0.10000593
0.051277846 0.025222082 0.03425051 0.1380312 0.09127653 -0.016841847 0.04134883 0.14227569
-0.0103469575 -0.082784735 -0.06694705 0.08889066 -0.06939907 0.14040187 0.007204617 0.05825766
0.049421076 0.007928103 -0.04558407 -0.04249878 -0.0686234 0.0031028867 -0.032377243 -0.022863753
0.13686262 0.04758132 -0.11188107 0.09498471 0.043895967 -0.16612537 -0.088472806 0.067599095
0.03365628 0.060637567 -0.07523357 0.12116281 0.11580743 -0.13119966 0.07031601 0.0049894997
0.042847857 -0.057254322 0.01612257 0.0050628814 0.13521081 0.05016827 -0.14330578 0.047933012
0.12708318 0.064745605 -0.15736808 -0.003377537 0.05148226 0.14073762 -0.11414381 0.06284514
0.09573723 -0.11886585 -0.032340344 -0.07764043 0.055771712 0.085979536 0.10445789 -0.10153454
0.014689903 0.09709071 0.037790205 0.051495593 0.07870592 0.0014607889 0.028566074 -0.04770458
-0.024535902 0.04054101 0.12008709 0.07947597 0.061279703 0.11666626 -0.12157682 0.057038568
0.08087783 0.07425117 0.086714745 0.034896176 -0.13012294 -0.12652887 -0.04709587 0.08336143
0.00683697 0.11330972 0.044541992 0.023110291 -0.13396882 -0.031314235 -0.038331293 -0.00496293
-0.13972466 -0.019101419 0.10774918 -0.017743725 -0.017522188 0.088574536 0.020069454 -0.06014388
-0.15119796 -0.057636466 0.068655506 -0.05941608 0.11103919 -0.06669944 0.045139596 0.09526512
0.009352119 0.13789915 -0.014998034 0.13562934 0.093724236 0.025080454 -0.018722538 -0.036194365
-0.029562337 0.030310327 -0.039568756 0.040823415 -0.11856287 -0.022145275 0.0047141626 -0.02725482
0.03757971 0.15540089 0.20377417 -0.0669253 -0.053056065 -0.014308617 -0.13311161 -0.01116236
-0.15311764 -0.11565772 0.07664831 0.20837909 -0.08268592 0.0063277623 -0.16164735 0.03619806
0.1731453 -0.13439839 0.12607488 -0.13314083 -0.12452117 -0.13680713 0.19343275 0.10161703
0.042741463 -0.034366652 -0.08046858 0.10610995 -0.051829126 -0.059940416 -0.20731854 0.15988699
0.044144884 -0.013335763 0.052155912 0.053385403 0.13762975 -0.06910208 -0.1931279 -0.17429341
-0.12861733 -0.058191147 -0.1169181 0.012032382 -0.029493341 0.058561537 -0.11675138 -0.08973344
0.13685732 0.039319117 -0.11625273 0.06722924 -0.10410103 -0.039754484 0.031618536 -0.065938964
0.17821775 0.041261185 0.027197134 0.016210465 -0.1617401 0.064952634 -0.011535414 0.042747345

lstm.bias_ih_l1 f4 [256]
00000000: 61e5 6c3d 9e9f dc3d 3fb9 82bd 2278 3e3d
00000010: 11bf 003e d295 a3bd 5bcf d0bc 4f5b 10bd
00000020: bd54 333d c194 06bc 96a7 a43d fdbc b1bd
00000030: fa7b 893d 5268 5ebc 9f42 90bd 71d9 c53d
00000040: 1f3b 8d3d 6a10 e1bc 0729 ab3d 3af0 77bc
00000050: 59ca c2bd 7294 30bd 3eff 1a3e f698 903a
00000060: 02fe d8bc d002 1c3e d7f0 fdbc d8bc 3e3d
00000070: 489a ab3d 28de a5bd 0e22 113e be29 073e
00000080: 98eb 1b3e bed6 973c c720 9a3c 75ef ef3d
00000090: f4c9 87bd b769 abbd 786f 1e3e 07b9 8fbc
000000a0: e3ae 953d 28bf de3d df4a e33d 58c9 173e
000000b0: b4c1 66bd 1c98 473e 48a8 2c3d 4f31 383c
000000c0: 109d 5439 1b8a d13a f24d 1b3e 4f6f 1abd
000000d0: 315d 93bd 8749 df3b e880 883d e189 0e3e
000000e0: 7568 ae3d 5e8d 33bd fa71 12bd d501 c53d
000000f0: 71e2 063e 3212 18bd b0ec ab3a a192 083e
00000100: f48b d23d 77c2 373d 55b3 74bd d956 9d3d
00000110: d990 fd3c c627 e73d f18e aebd a64c 54bd
00000120: 5d44 dd3c e3db f63c 83e7 943d c347 5d3d
00000130: c5b4 f73d ec6c 5d3d bb4a 163e 6b3e 073e
00000140: e83a 93bd c304 6db9 cad3 03bd 5264 2dbb
00000150: 9bef f33d 5810 b13c c43e f43c ca7f 453d
00000160: 988b 6c3c 65a2 abbd a1e7 a83c d5c8 8b3d
00000170: 56a5 643d 7c26 263c d655 ce3d 4414 1ebd
00000180: 67d4 bdbc 4dad 60bd 507a 793d 4d5b 4d3d
00000190: 840d aebd 5b7b a13d 00ae 8ebd aa81 bebd
000001a0: 4d46 0ebd 85c3 7ebd 90e1 de3d 706b 023e
000001b0: 27aa 023c d2fd e83c 6e3e 543d 8938 9cbd
000001c0: c932 ccbd 3d1e ea3c 136b f13d 6a00 de3d
000001d0: c671 8cbd 98c0 da3d 20c7 803d 4651 a2bd
000001e0: 57ad cf3d 8ece 03bd 51da e63d 6997 2abc
000001f0: 6a7d b13c 9faa ed3d 6397 b7bd 1071 a33b
00000200: 0da3 913d 38a6 f93c 6791 50bc d4fd 1c3e
00000210: 6f74 10be 046b 3c3c cc09 92bd 9bbb 603c
00000220: 380b 31bc 52b7 f6bc 6a65 bbbd 2d54 c63d
00000230: 9057 433d 553c d1bc 8e2a bfbd 0ca1 61bd
00000240: 36cb 58bc c290 c3bc fc1b 0d3e 54f8 c4bd
00000250: 7b35 c2bd 6d46 453d f233 4e3d f7d0 85bb
00000260: 0be6 3cbd 3047 9a3d 3b8d a8bd b8a4 0abd
00000270: 19b3 c13c c285 6c3d a83d f5bd 2223 603d
00000280: 6ab8 ccbd bcd2 133d 029e aebd f5bb ed3d
00000290: 0023 0c3b 61af 06bd d6c6 9a3b 8f3e a53d
000002a0: c057 80bd 2e6a d93d 437f 813d ff6c 673d
000002b0: b8dc 293d 0f26 293d 7753 ebbd 7a03 9ebd
000002c0: 23bb 073e 0220 ee3d 6bac e73c 07b0 f73d
000002d0: c327 59bd 0cd1 0d3e adba c23d ecbe 843d
000002e0: 649c b7bd e02e 16be 111f b73d 2020 49bc
000002f0: e37d 9ebd b137 d33d e7c3 ba3d 4a0a 5dbd
00000300: 2928 d53d 9c40 0e3e 1732 113e 7d28 8aba
00000310: 922d 2d3d 84d0 a7bd 35ba 1cbd 25ad 82bd
00000320: 8656 023d f6e9 f73d ed26 7dbd 4f62 27bd
00000330: 705c 263d b532 be3d e4c4 80bd 746b 2f3d
00000340: 4524 b3bd eb08 663d 1a62 77ba 12d3 e23b
00000350: 8c9e af3d 041c da3c 0cd7 f03d d793 043e
00000360: 4d4c 033e 769b 043d bcf6 52bd 323b cbbd
00000370: d9d7 b1bd 1f0e 183e f570 5f3d 89a5 c73d
00000380: b194 1d3d c4bd 253d d337 1e3e b91c 523d
00000390: 760f dc3d 3f06 5d3d e1ed 263e a3ee 523e
000003a0: aafb 3abd a6a8 093e 01be 1dbb e77a c2bd
000003b0: d2ac de3d 2597 713c 2ade 82bd 5132 9b3d
000003c0: 29dd 283d d84a 05bd 5f45 9b3c abcf ed3c
000003d0: 6267 dc3d 2544 293d 3e5f 153e 2a11 2fbd
000003e0: 1971 c13d 7942 d2bc 8c6c b0bc f663 723d
000003f0: c481 9dbd 5417 66bd 041b e23c e2d5 ae3d
0.05783594 0.10772632 -0.06382989 0.046501286 0.12572886 -0.0798756 -0.0254895 -0.03524333
0.043781985 -0.008214177 0.08039777 -0.08678625 0.067131 -0.013574677 -0.07043957 0.09660614
0.06896042 -0.027473647 0.08357435 -0.015132958 -0.09511251 -0.04311032 0.1513643 0.0011031914
-0.026488308 0.15235448 -0.03099863 0.046566814 0.08379036 -0.080990136 0.14173147 0.13199517
0.1522659 0.018535014 0.018814458 0.11715595 -0.066303164 -0.08369773 0.1547221 -0.017544283
0.073087476 0.10876304 0.11098265 0.148229 -0.056337073 0.19491619 0.042152673 0.011242225
0.00020276406 0.0015986593 0.15166453 -0.03770381 -0.07195509 0.006814185 0.06665212 0.13919784
0.08516017 -0.04383599 -0.035753228 0.0961949 0.13172318 -0.037126727 0.0013116803 0.13337184
0.102806 0.04486319 -0.059741337 0.076825805 0.030952858 0.11286883 -0.08523358 -0.05183091
0.027010137 0.030134147 0.0727072 0.054023515 0.12095026 0.054058954 0.14676945 0.13207404
-0.0718897 -0.00022603855 -0.0321844 -0.00264575 0.119109355 0.021614239 0.029815085 0.048217572
0.014437579 -0.08380584 0.020618262 0.06825415 0.05582174 0.010141011 0.10074966 -0.038593546
-0.02317257 -0.054852773 0.060907662 0.0501359 -0.08498672 0.07884856 -0.069667816 -0.09302075
-0.034735013 -0.06219818 0.108828664 0.12736297 0.007975138 0.028441343 0.05181735 -0.07627971
-0.09970624 0.028578872 0.11788001 0.10839923 -0.06857638 0.106812656 0.0628798 -0.07925658
0.10140484 -0.032179408 0.11272109 -0.010412076 0.021666247 0.11604809 -0.089644216 0.0049878433
0.071111776 0.030474767 -0.012729979 0.15331203 -0.14106916 0.011500124 -0.07130775 0.013716604
-0.010805897 -0.03011671 -0.091502026 0.09684024 0.047690928 -0.025541464 -0.093342885 -0.055085227
-0.013232043 -0.023872737 0.13780206 -0.09617677 -0.09482857 0.048162866 0.050342508 -0.0040837484
-0.046117824 0.07533109 -0.082300626 -0.033848494 0.02364497 0.05774475 -0.119746506 0.054721005
-0.09996112 0.036089644 -0.08526231 0.116081156 0.0021383166 -0.032882098 0.00472341 0.08068573
-0.06266737 0.10615955 0.06323101 0.05650043 0.04147026 0.04129606 -0.11490529 -0.07715507
0.1325498 0.11627199 0.028280457 0.120941214 -0.053016435 0.13849276 0.09508262 0.06481728
-0.08965376 -0.14666319 0.08941472 -0.012275726 -0.07738855 0.10313357 0.09119397 -0.05396489
0.104080506 0.13891834 0.14179264 -0.0010540631 0.042279787 -0.08194068 -0.03826352 -0.06380681
0.031820796 0.121051714 -0.0618047 -0.04086524 0.0406155 0.09287015 -0.06287554 0.042827085
-0.08747152 0.05616085 -0.00094369205 0.006922134 0.08575162 0.026624687 0.11759767 0.12947021
0.12822075 0.03237482 -0.051504835 -0.099234 -0.08683748 0.14849137 0.054551084 0.0974837
0.03847188 0.040464178 0.15450983 0.051296923 0.107451364 0.053961035 0.16301681 0.20598845
-0.04565016 0.1344324 -0.002406955 -0.09496098 0.108728066 0.014745508 -0.06390031 0.075779565
0.04122654 -0.03254208 0.018953977 0.029029688 0.10761906 0.041324753 0.14587113 -0.04274098
0.094454 -0.025666462 -0.021536134 0.05917736 -0.076907665 -0.05617459 0.027600773 0.08536889

lstm.bias_hh_l1 f4 [256]
00000000: 0509 d9bc 25e3 933d 1f32 92bc 2992 0c3d
00000010: cebf b83d bc1b 98bd 47c2 353d ed21 2f3c
00000020: 497b d3bd 4490 27bd ec84 d63d 6d5e 323d
00000030: ff72 ad3c 8af1 3c3d ae13 6cbd 2d25 193e
00000040: 6f80 1cbd 8b45 31bc 8695 8c3d 4ed5 3b3c
00000050: 4ff7 8e3d 9624 cb3d 7e31 613d 1ee5 b43d
00000060: 82db f0bc 0021 e0bc ff28 65bd 24c1 c03d
00000070: 77cc 073e 6756 093c 9a59 3d3d 3fba eabb
00000080: 88e9 69bd f943 da3d d623 c7bb 61c4 b53d
00000090: e3c4 ad3d ea38 3f3d bd70 563d 89f7 1c3e
000000a0: d190 dcbc d772 0a3e 9995 2b3e 94dc 1c3e
000000b0: 1c77 143e 10e1 463a 431a 573d 88b8 063d
000000c0: 0eb6 063e 1298 363e 0d59 3c3d d6d3 e63b
000000d0: 6f6c 943b baf7 c23d a5b5 543e 3675 f43d
000000e0: 0b50 023e 64a7 96bd 0f38 54bc 8089 58bd
000000f0: 593c a1bd 155d 7fbd b75e c63d 1f04 8d3d
00000100: 27d7 fdbc c3fe 48bd e6c6 0c3e 10b8 ef3d
00000110: 2737 1d3d cc70 93bd 012d ea3d 10a7 eb3d
00000120: 19d8 eb3b 0ce0 103e 1657 063e 1d9c e83d
00000130: 6f7d 0f3e 591a c93d ee63 abbb 9684 043e
00000140: aa7a 84bd 35ae 43bd ce3c e33d 7fb6 4dbd
00000150: 29c8 b43d 5235 ed3c 0ca1 99bd 0b1d 173e
00000160: a6c8 5abd 9da8 29bd d950 e13d 1097 513d
00000170: 1baf 5cbd dbfd d43d 5e2c 803d f613 783d
00000180: 06f5 e9bc 5ce2 ec3d b8a4 ddbd 67bd 143e
00000190: 7631 803c f71a 84bb 0b2f 9a3c 0226 13bc
000001a0: 3e9e a0bd b3c4 453d 4c96 a4bd 2e20 b5bd
000001b0: 9d01 433d b345 c03d a97f a93d 5fc9 b3bd
000001c0: d9c9 763d 4e18 a23d 92fe ee3d 1d62 ec3c
000001d0: 59ab b0bd 1589 063e 287b 3a3d 4486 4bbd
000001e0: 6d0d a6bd 8e4d 8f3d b459 47bc 70ed 49bd
000001f0: 53f5 00bd 97f4 bcbd 15f3 8c3d 236a 123d
00000200: 1115 0c3d 7e6b a93d aa9c 913d 878a 593d
00000210: a776 b4bd 57e9 be3c eefb 69bd b4f6 973d
00000220: d292 b4bd e90a cbbd 779a 603d 2c6c 193c
00000230: 8e84 04be 96d7 5cbc bb6a f1b9 ba6d 04be
00000240: dc8f af3c 0e03 32bd c529 913d eff1 c63c
00000250: 13c7 eebc bd77 8bbd 0a2c a73d d76a 143e
00000260: 2e59 9a3d 6db3 e63d 29f5 6cbd d21d 5abc
00000270: a0ee 973d 48e3 c13d de7c 8c3b 2211 0c3e
00000280: a80b 89bd 2eb8 d53c ec04 37bd 25c8 87bd
00000290: 38b4 843d 3e8c a6bb dcfe ccbd 0abe bdbd
000002a0: 79cf 17be c084 69bc 81df f5bd f9cc 96bc
000002b0: 44eb 2f3d f10a 903c 0f96 94bb 9faf 03bd
000002c0: c778 f93d 7814 bfbd 2a63 d2bc 58e8 443c
000002d0: 46d3 bfbd 276d 023d aac9 8a3c 4014 efbd
000002e0: fb57 1a3e 600f 853c fbb6 d73c c2bd 08be
000002f0: a3a8 e0bd ce10 c33b 5c75 62bd 2e23 25bd
00000300: 3373 a9bd 7c29 5fbd 6194 c83d 4817 4c3e
00000310: 243a c03c 5326 fabc 8f74 93bc c640 b23b
00000320: 4fe6 57bb 7b9a 4ebd 030f 87bc 9e54 893d
00000330: 557b 3dbd 03f5 a23d 2093 d5bd 2498 abbd
00000340: 89de a6bd 0162 f33d b55b c7bd 276e 89bc
00000350: c9fb 67bb fd34 2f3e 8100 72bd 08c6 823d
00000360: aa37 53bc a3a7 f53d 3737 243d 33e5 d93c
00000370: 6c55 62bd b187 e13d 68f9 573c 5f5b 083e
00000380: 6e20 303e 7ecd 8ebc 7b03 d93b 9f6f 7ebc
00000390: 1c58 333d 1b9a 353d d92f 273e 37ff b8bc
000003a0: 5c10 803d 8514 2f3e eb9e c53d 13c2 acbd
000003b0: 5091 be3c 022f 173e 422f c33d 50b1 b63d
000003c0: 181f f73d d5be 9d3d 58d3 323e 395c 133e
000003d0: dd5b 20bc cc70 96bd 5139 5d3e 6be3 893d
000003e0: 95d5 b7bd e481 e73c 98c6 bd3d da53 173e
000003f0: 87fe 94bd d264 bc3a dd6b a1bd 5cad ee3d
-0.026493559 0.07221059 -0.017846165 0.034319077 0.09020959 -0.07427165 0.04437473 0.010689241
-0.10326249 -0.040909067 0.104745716 0.043547083 0.021172998 0.046128787 -0.057635956 0.14955588
-0.03820842 -0.010819803 0.06864457 0.01146443 0.06980764 0.099190876 0.05497884 0.08832763
-0.029401544 -0.027359486 -0.0559473 0.09411839 0.13261591 0.008382416 0.04622803 -0.0071633155
-0.05710748 0.10657496 -0.00607727 0.08875347 0.08484819 0.046685137 0.05235361 0.15328802
-0.026924523 0.1352037 0.16756286 0.15318519 0.14498562 0.00075866375 0.05251528 0.032890826
0.13155386 0.17831448 0.045983363 0.007044296 0.004529528 0.09519906 0.20772417 0.11936419
0.12725846 -0.07356146 -0.012952819 -0.052865505 -0.078728385 -0.06234463 0.09686034 0.06885552
-0.030986382 -0.049071085 0.13747749 0.11705029 0.038382675 -0.07199249 0.11434365 0.11506474
0.0071973917 0.14147967 0.13119158 0.11357901 0.14012693 0.098194785 -0.0052304184 0.12941203
-0.06468709 -0.04777356 0.11095582 -0.05022287 0.0882724 0.02895609 -0.075014204 0.14757173
-0.05341401 -0.041420568 0.110017486 0.051169455 -0.05387793 0.103999816 0.06258462 0.06056591
-0.02855922 0.11566612 -0.10822433 0.14525376 0.015648585 -0.004031535 0.01882126 -0.00898123
-0.07842682 0.04828329 -0.08036479 -0.088440284 0.04760896 0.09388294 0.08276302 -0.08778643
0.06025109 0.07914792 0.11669649 0.028855378 -0.08626432 0.1313823 0.045527607 -0.049688593
-0.081080295 0.06997214 -0.012167383 -0.049298704 -0.03148396 -0.09226339 0.06882302 0.03574575
0.034199778 0.08272456 0.071099594 0.053110626 -0.08811694 0.023304624 -0.057125024 0.07420102
-0.08817066 -0.0991419 0.05483481 0.009364169 -0.1294119 -0.013479134 -0.00046046622 -0.12932482
0.021430902 -0.043459944 0.07088045 0.024285285 -0.02914766 -0.06809948 0.08162697 0.14493881
0.07536541 0.112646915 -0.05785099 -0.013312774 0.07418561 0.094671786 0.0042873463 0.1367841
-0.066916764 0.0260888 -0.04468243 -0.066299714 0.064796865 -0.005082636 -0.10009548 -0.09264763
-0.14825238 -0.0142528415 -0.120055206 -0.018408285 0.042948976 0.017583342 -0.00453449 -0.032149907
0.121812396 -0.09330076 -0.02568205 0.012018286 -0.09366469 0.031842377 0.016941864 -0.11673784
0.15072624 0.016242683 0.02633237 -0.13353637 -0.10969665 0.005952931 -0.055287704 -0.040316753
-0.08273926 -0.054482922 0.09793926 0.19930756 0.023465224 -0.030535853 -0.017999915 0.0054398505
-0.003294367 -0.050440293 -0.01648665 0.067055926 -0.046260197 0.079568885 -0.104284525 -0.08378628
-0.08147914 0.11883927 -0.097342886 -0.016776158 -0.0035397878 0.17110057 -0.05908251 0.06385428
-0.012891689 0.11994865 0.04009172 0.026598549 -0.055257246 0.11012209 0.013182022 0.13316105
0.17199871 -0.01743197 0.0066227294 -0.015529542 0.0437852 0.04433642 0.16326846 -0.022582633
0.0625312 0.17097671 0.09649452 -0.08435454 0.02326265 0.14764026 0.09530498 0.089205384
0.120664775 0.07702414 0.17463434 0.14390649 -0.009787527 -0.07345733 0.21603896 0.0673283
-0.089762844 0.028260179 0.092663944 0.1477808 -0.0727511 0.0014373309 -0.078819014 0.116541594
