model/Adam with batch_size=2048;epoch=xx.pt (torch_old, 210647 bytes, 10 tensors)

lstm.weight_ih_l0 f4 [256, 1]
-0.107351765 -0.06243742 0.019130323 0.099541284 0.20064287 -0.023906963 -0.09222499 -0.12794921
0.087574564 -0.082398154 -0.17673996 0.13741349 0.07772121 0.25742742 -0.06068635 0.17479426
0.020730255 0.10452355 0.10459147 0.5504707 -0.021785166 0.16201603 -0.12998 -0.12905988
0.19532907 -0.15637848 0.24604952 0.1756442 0.14566219 0.05876145 0.21494485 0.24975255
0.006186168 -0.10816292 0.121643886 0.0892376 0.21039563 0.115391314 0.09529365 0.20466611
-0.13421772 0.06089259 0.3044051 0.053363737 0.12897077 -0.07110328 -0.014794791 0.22184084
0.07186492 -0.20530866 0.23557505 0.05126294 0.3823176 -0.10651819 -0.09268257 0.10314134
0.11812364 0.062398706 0.2654218 0.07748774 -0.13545176 0.17423975 -0.08025966 0.08606106
0.043273505 -0.008310861 0.1900145 0.111841746 0.15547782 0.10409203 0.1895463 -0.06190597
-0.09641525 0.18968794 -0.123261504 0.024139062 0.19480081 0.010532265 0.17770942 0.13005707
-0.02979727 0.055516433 0.04833793 0.1303207 0.2427451 0.18328942 0.103925765 0.15681593
-0.06881473 -0.13886933 -0.037246928 0.0043639075 0.14341682 -0.061303843 -0.03837138 0.08224825
0.1278808 0.14632122 0.02152128 0.0055444445 -0.16762602 0.13977006 -0.08348111 0.086625285
0.105154455 0.088630535 -0.11643827 0.21184188 0.20687728 0.053912032 0.12208353 -0.044826113
0.35150498 -0.054957524 0.006081182 0.22954857 0.29022035 -0.100140125 0.2584815 0.13378292
0.027050156 0.014341858 -0.32737273 0.21165276 -0.1285236 -0.005528281 0.030323032 0.12135951
0.031956617 0.08525449 0.03014013 -0.041697875 0.08427297 0.085582 -0.30646777 0.22072116
0.040072627 -0.24031276 -0.44922197 0.098150276 0.040841743 -0.14405842 -0.06814977 -0.07673501
0.47647697 -0.0033077493 0.2368169 -0.1530265 0.14846694 -0.06822277 0.19841088 0.20310473
0.13195015 -0.16666096 -0.33615533 0.057437163 -0.124109 -0.28485924 -0.21767364 -0.31134668
-0.021673752 0.1806256 0.11272542 -0.12729742 0.17518021 -0.13386866 -0.16056845 0.091172524
0.31836575 -0.058109507 0.09528759 0.021351568 -0.18668894 -0.059069958 -0.22806658 -0.13438942
-0.04915793 0.18522274 -0.19514081 0.50454754 0.18596403 -0.24063952 0.23463103 0.080958076
-0.0053641126 0.13903117 0.27219084 -0.035095893 -0.26116267 0.26023257 0.23393738 0.059471093
0.23980194 -0.18057202 0.04485733 0.12527889 0.059109107 -0.25048915 0.12980832 -0.09145689
0.20019995 0.13666575 -0.01721155 0.33784473 0.14077705 0.14278357 0.21425879 0.080843136
0.017361626 0.31277636 -0.073293544 0.07879678 -0.20342083 -0.17627694 0.2739988 0.045419175
0.18943568 0.30544782 0.1857652 0.22485578 -0.19062924 0.18080528 0.14810523 -0.09616281
-0.028381186 0.24805231 -0.037933875 0.29340056 0.2653295 0.28162545 0.054776307 -0.060772013
0.18627065 -0.19563445 0.06520664 0.07224613 -0.12225877 -0.03264294 0.027103042 0.14143474
0.04673326 0.14009912 -0.0022746623 -0.14272179 0.14765376 0.058123674 0.12987664 0.09706295
0.23062609 0.12188119 0.24321975 0.20046626 -0.08348804 -0.07034992 0.021249438 -0.15792808
00000000: 3edb dbbd 61be 7fbd 32b7 9c3c 4ddc cb3d
00000010: 5375 4d3e 89d8 c3bc 75e0 bcbd 1e05 03be
00000020: 4b5a b33d 5dc0 a8bd 52fb 34be 1fb6 0c3e
00000030: 4c2c 9f3d 87cd 833e 4092 78bd 44fd 323e
00000040: 7fd2 a93c 7110 d63d 0d34 d63d a6eb 0c3f
00000050: ce76 b2bc 88e7 253e 7a19 05be 4628 04be
00000060: 5804 483e ae21 20be 68f4 7b3e 13dc 333e
00000070: 7828 153e d9af 703d 811a 5c3e 22bf 7f3e
00000080: 57b5 ca3b 8584 ddbd 6e20 f93d 34c2 b63d
00000090: f471 573e 4852 ec3d 5129 c33d fe93 513e
000000a0: 5f70 09be 826a 793d fcda 9b3e ef93 5a3d
000000b0: ea10 043e 999e 91bd da65 72bc 3f2a 633e
000000c0: ea2d 933d 6f3c 52be 963a 713e 17f9 513d
000000d0: 22bf c33e 3526 dabd 5cd0 bdbd c43b d33d
000000e0: cfea f13d c995 7f3d 5ee5 873e e4b1 9e3d
000000f0: deb3 0abe e86b 323e 2d5f a4bd c840 b03d
00000100: 8f3f 313d 472a 08bc 2993 423e 490d e53d
00000110: 9435 1f3e 342e d53d 6d18 423e 1d91 7dbd
00000120: 5c75 c5bd 8e3d 423e 8770 fcbd 48bf c53c
00000130: dd79 473e 858f 2c3c 75f9 353e ae2d 053e
00000140: 6819 f4bc 3365 633d fefd 453d ca72 053e
00000150: 2c92 783e 39b0 3b3e 08d7 d43d 5b94 203e
00000160: bdee 8cbd c333 0ebe 3c90 18bd 1cff 8e3b
00000170: dcdb 123e bd19 7bbd 4f2b 1dbd c571 a83d
00000180: 2ff3 023e 3bd5 153e 654d b03c 2cae b53b
00000190: 28a6 2bbe e21f 0f3e 25f8 aabd 9968 b13d
000001a0: 385b d73d ed83 b53d 3077 eebd 14ed 583e
000001b0: a3d7 533e ddd2 5c3d ee06 fa3d 969b 37bd
000001c0: 76f8 b33e 241b 61bd a744 c73b c80e 6b3e
000001d0: c397 943e 4416 cdbd b057 843e 64fe 083e
000001e0: 4a98 dd3c 1dfa 6a3c 669d a7be 80bb 583e
000001f0: b19b 03be 9526 b5bb 0268 f83c 568b f83d
00000200: f1e4 023d e899 ae3d 6fe8 f63c 64cb 2abd
00000210: 4f97 ac3d 9e45 af3d 58e9 9cbe ba04 623e
00000220: 3223 243d 8c14 76be 6c00 e6be 0303 c93d
00000230: ac49 273d 0d84 13be 1b92 8bbd 3f27 9dbd
00000240: caf4 f33e d3c6 58bb 2180 723e fbb2 1cbe
00000250: b807 183e 61b8 8bbd 392c 4b3e b0fa 4f3e
00000260: f11d 073e 2ca9 2abe 8d1c acbe 3b43 6b3d
00000270: dc2c febd 12d9 91be d7e5 5ebe d568 9fbe
00000280: 278d b1bc ebf5 383e 96dc e63d 415a 02be
00000290: 7162 333e de14 09be 0e6c 24be a9b8 ba3d
000002a0: d600 a33e 3c04 6ebd 2426 c33d 7ce9 ae3c
000002b0: 632b 3fbe 57f3 71bd 498a 69be 619d 09be
000002c0: d359 49bd 08ab 3d3e fed2 47be 072a 013f
000002d0: 5b6d 3e3e 356a 76be 1e43 703e 59cd a53d
000002e0: 70c5 afbb 305e 0e3e 995c 8b3e b6c0 0fbd
000002f0: 1db7 85be 343d 853e 488d 6f3e f697 733d
00000300: a48e 753e dfe7 38be 52bc 373d 1c49 003e
00000310: 641c 723d 1d40 80be 79ec 043e c04d bbbd
00000320: 3701 4d3e 1bf2 0b3e 3dff 8cbc fcf9 ac3e
00000330: dc27 103e db35 123e a866 5b3e 1691 a53d
00000340: f839 8e3c 3924 a03e ed1a 96bd 3560 a13d
00000350: 8d4d 50be f181 34be 9249 8c3e 7509 3a3d
00000360: 6dfb 413e a863 9c3e 3c39 3e3e 9840 663e
00000370: 5034 43be 0525 393e e6a8 173e 02f1 c4bd
00000380: a97f e8bc 6d01 7e3e 8d60 1bbd 9938 963e
00000390: 45d9 873e 3631 903e 1f5d 603d 13ec 78bd
000003a0: bcbd 3e3e 6654 48be 0f8b 853d c7f5 933d
000003b0: ce62 fabd 9ab4 05bd 3307 de3c 45d4 103e
000003c0: 606b 3f3d 2576 0f3e 8012 15bb a925 12be
000003d0: 8c32 173e 1713 6e3d 62fe 043e f1c8 c63d
000003e0: 3f29 6c3e d89c f93d 990e 793e 0747 4d3e
000003f0: c7fb aabd 9e13 90bd 4d13 ae3c e6b7 21be

lstm.weight_hh_l0 f4 [256, 64]
0.192721 0.32511517 0.12869921 -0.08661205 0.031730946 0.2495634 -0.039993677 0.14995171
0.047507647 0.05080544 -0.30906466 -0.16530143 0.10910384 0.10623685 -0.060231157 0.05295542
0.06297377 -0.10427401 0.13545974 -0.12557065 0.26179075 -0.33764625 0.19309632 0.22724964
-0.10534673 -0.409991 -0.023755293 -0.08724037 -0.24758829 0.04330783 0.02432857 -0.1377683
-0.1875205 0.06785049 -0.023147678 -0.16507481 0.14982545 -0.045984756 0.030435376 0.016058492
-0.07032502 -0.2328776 -0.16558923 0.24332382 -0.31229794 -0.15493958 -0.17225148 -0.08400113
0.09622287 0.51586425 -0.1319876 0.27268884 -0.04300882 -0.07336216 0.10788363 0.06979361
-0.06491882 0.049207963 0.011443027 -0.1840227 -0.22650309 0.24637541 0.095751084 0.27904508
0.07962653 0.26539865 0.18788429 -0.05105031 0.2129411 0.051326647 0.09856529 0.014275864
0.12937896 0.055658907 0.0078059956 0.12847272 0.0700176 0.022156036 -0.14701827 -0.018505402
0.15182787 -0.033985943 0.031338204 -0.0907086 -0.050262194 -0.3457292 0.15602525 0.06688542
-0.057868343 -0.02070296 -0.06110422 0.13907696 -0.07913232 -0.16196895 0.016843447 -0.088149175
-0.07507229 0.097664155 0.13061361 -0.16837783 0.07750007 -0.16575795 -0.13732794 0.06761197
-0.00438742 -0.07574335 0.017357422 0.11329025 -0.2052965 0.001957384 -0.017768309 0.06823966
-0.20880179 0.19080226 -0.11119952 0.14737761 0.16453779 -0.022870008 -0.026985057 0.037648454
-0.08332375 -0.03282228 0.22942087 0.033881433 -0.12167975 0.10560907 0.13871849 0.1732559
0.050785482 0.45557022 0.060749106 -0.16075881 0.10043842 0.30663714 -0.057192598 0.24465375
-0.08582388 -0.090021595 -0.29894185 0.0801763 0.019115537 -0.02759276 -0.042334598 -0.23808247
0.120434344 0.016290259 0.22009674 -0.029923458 0.28319654 -0.51689047 0.09219529 0.25072017
-0.085980095 -0.4553682 -0.09351454 -0.12717718 -0.45976865 -0.015879882 -0.18395971 -0.14156267
-0.08355009 0.020566279 -0.18236487 -0.14621297 0.07807813 -0.021928916 -0.16887242 0.16669661
0.05246935 -0.3442367 -0.28641158 0.01851844 -0.29466635 -0.19289738 0.026539395 -0.0160295
0.041594096 0.23076658 -0.011565739 0.367172 -0.042235635 -0.29355997 -0.006636762 0.06831744
-0.06728785 0.13188525 0.12215236 0.003985725 -0.34008142 0.14712879 0.016983818 0.28226003
0.08664457 0.01186493 0.07621675 0.0314275 0.027761308 0.19127753 -0.13913406 0.14933757
0.10560635 -0.031502504 -0.00905867 -0.19820692 0.07269335 0.08259753 -0.15013191 -0.13111863
-0.034732033 0.12241466 0.17108946 0.0013247051 -0.10356456 0.076109394 -0.03357506 0.12794022
0.050136752 0.02719387 -0.055107437 -0.010858844 0.05362205 -0.019132052 0.071752116 0.011850706
-0.036070216 0.0037166593 -0.032890733 -0.015372849 0.020272043 -0.12543185 -0.19810241 -0.040770855
0.03242161 0.05717039 -0.078395516 0.16809425 0.029362606 -0.029395785 -0.14645326 -0.057612438
-0.17371282 0.09280145 0.049184598 0.13709104 0.04497561 -0.14738485 0.17969202 -0.010119105
0.15538906 0.11471341 0.021468839 -0.059422065 -0.12029863 0.17370297 0.16502358 -0.05291682
00000000: a758 453e 7f75 a63e bac9 033e a961 b1bd
00000010: 4ff8 013d 8c8d 7f3e 69d0 23bd f18c 193e
00000020: 6197 423d 5d19 503d b93d 9ebe c744 29be
00000030: d671 df3d b592 d93d f2b4 76bd c8e7 583d
00000040: 64f8 803d 9d8d d5bd f5b5 0a3e 9895 00be
00000050: 7009 863e f8df acbe 0bbb 453e 21b4 683e
00000060: 07c0 d7bd 57ea d1be 769a c2bc 14ab b2bd
00000070: c987 7dbe 8d63 313d b64c c73c 2213 0dbe
00000080: 6005 40be 33f5 8a3d 33a0 bdbc 5f09 29be
00000090: d86b 193e 835a 3cbd 9c53 f93c 198d 833c
000000a0: 9006 90bd 7777 6ebe 3990 29be e129 793e
000000b0: 84e5 9fbe 7ba8 1ebe b162 30be c908 acbd
000000c0: 7f10 c53d ae0f 043f c227 07be df9d 8b3e
000000d0: 042a 30bd e63e 96bd 18f2 dc3d f4ef 8e3d
000000e0: 29f4 84bd 4a8e 493d 897b 3b3c 7270 3cbe
000000f0: 6df0 67be d649 7c3e 2519 c43d ffde 8e3e
00000100: 3c13 a33d 55e2 873e bd64 403e 211a 51bd
00000110: 3b0d 5a3e e43b 523d 99dc c93d 50e5 693c
00000120: eb7b 043e 98fa 633d 70c9 ff3b 5a8e 033e
00000130: 6365 8f3d 9380 b53c f58b 16be a498 97bc
00000140: c478 1b3e d834 0bbd 7d5c 003d 6ec5 b9bd
00000150: bbdf 4dbd 6b03 b1be 15c5 1f3e 39fb 883d
00000160: 5b07 6dbd 4199 a9bc 6b48 7abd 316a 0e3e
00000170: 2010 a2bd 30db 25be 45fb 893c 8e87 b4bd
00000180: 80bf 99bd 2504 c83d 93bf 053e 3d6b 2cbe
00000190: 5bb8 9e3d 74bc 29be b29f 0cbe 2578 8a3d
000001a0: 59c4 8fbb 541f 9bbd 2731 8e3c b804 e83d
000001b0: 3f39 52be 7447 003b d88e 91bc 3cc1 8b3d
000001c0: 23d0 55be ab61 433e 93bc e3bd 28ea 163e
000001d0: 987c 283e e259 bbbc c40f ddbc 4435 1a3d
000001e0: a4a5 aabd a870 06bd 4eed 6a3e 42c7 0a3d
000001f0: 3c33 f9bd 9149 d83d 380c 0e3e ff69 313e
00000200: 7004 503d 8040 e93e 0ed4 783d f59d 24be
00000210: a9b2 cd3d 8bff 9c3e c942 6abd 8386 7a3e
00000220: 6ec4 afbd 3e5d b8bd e80e 99be 7933 a43d
00000230: 3098 9c3c 360a e2bc 0b67 2dbd e4cb 73be
00000240: 48a6 f63d 2673 853c 0a61 613e 0a22 f5bc
00000250: 23ff 903e ef52 04bf e2d0 bc3d 655e 803e
00000260: 5516 b0bd 0526 e9be 8d84 bfbd bc3a 02be
00000270: cc66 ebbe 8716 82bc ef5f 3cbe cef5 10be
00000280: 4f1c abbd 9d7a a83c dbbd 3abe dab8 15be
00000290: 6de7 9f3d 45a4 b3bc e4ec 2cbe 84b2 2a3e
000002a0: 1aea 563d cb3f b0be 8aa4 92be fcb3 973c
000002b0: 82de 96be e486 45be 2569 d93c 4c50 83bc
000002c0: 925e 2a3d 134e 6c3e 3a7e 3dbc f8fd bb3e
000002d0: 46ff 2cbd 7e4d 96be 3279 d9bb 04ea 8b3d
000002e0: 36ce 89bd ed0c 073e 042b fa3d af9a 823b
000002f0: 271f aebe eea8 163e a621 8b3c 6384 903e
00000300: b572 b13d 2065 423c 8717 9c3d 1fba 003d
00000310: af6b e33c 42de 433e 2979 0ebe f3eb 183e
00000320: 2448 d83d c508 01bd d16a 14bc c1f6 4abe
00000330: 40e0 943d e528 a93d 2ebc 19be f643 06be
00000340: 2d43 0ebd 8ab4 fa3d 1332 2f3e baa1 ad3a
00000350: a819 d4bd 3edf 9b3d 0186 09bd c302 033e
00000360: 325c 4d3d aec5 de3c 56b8 61bd 4be9 31bc
00000370: cba2 5b3d d2ba 9cbc c6f2 923d 7729 423c
00000380: 5dbe 13bd 3293 733b 6fb8 06bd 67de 7bbc
00000390: 8e11 a63c 3571 00be 5cdb 4abe 57ff 26bd
000003a0: 86cc 043d 802b 6a3d d48d a0bd e620 2c3e
000003b0: d989 f03c 6ecf f0bc d8f7 15be 05fb 6bbd
000003c0: c6e1 31be b00e be3d ca75 493d 9861 0c3e
000003d0: 5838 383d 0eec 16be 2f01 383e 9aca 25bc
000003e0: 4f1e 1f3e ddee ea3d 6bdf af3c 8d64 73bd
000003f0: 215f f6bd 31df 313e f1fb 283e 4fbf 58bd

lstm.bias_ih_l0 f4 [256]
0.009124317 0.10967349 0.10586794 -0.14445093 -0.029086335 -0.10633789 0.05190728 0.12624265
0.016113687 0.100574136 0.17244594 0.22813803 -0.07359167 0.115103014 0.047700733 0.20834649
0.18236722 -0.14055294 0.31053808 0.038859 0.10755582 0.009747223 0.05939064 -0.010177122
-0.08742805 -0.017579922 0.3746576 -0.48594037 0.02634359 0.16910398 0.13998571 0.21615715
-0.028260663 0.02665446 0.14884762 0.18089986 0.21045753 0.05614833 0.08643802 -0.029729657
0.022790488 0.04671375 -0.12367498 -0.0865139 0.12659614 0.07964966 0.11050771 0.36054298
-0.06341079 0.14279574 0.006668699 0.17298107 0.23141102 -0.018850986 0.22550522 -0.14939168
-0.09545869 0.07615534 -0.003045487 -0.20689179 0.15127778 0.2916034 0.08385451 -0.086934954
-0.097257964 0.088120185 -0.037979294 0.14185925 -0.17238107 0.029722271 0.11120001 0.09841999
0.11493318 0.2239961 -0.008921092 0.09735176 0.07050574 -0.06949843 -0.02577466 0.07700993
0.03727433 0.0572385 0.16312198 -0.024521982 0.12976947 0.020790197 -0.10362955 -0.023510592
0.11301847 0.07326446 -0.14098597 -0.0052293097 -0.049716394 0.06147659 -0.058985975 0.123658784
0.14284809 -0.116407126 0.112936534 -0.024965001 0.046907857 -0.15042633 -0.04435274 0.15973283
0.20510754 0.061884012 -0.10565938 0.06609877 -0.076872386 -0.053885553 -0.20341621 0.042122647
-0.21542259 -0.013745052 0.034717813 0.018802853 -0.026470458 0.09241021 -0.013041341 -0.07895286
0.06869576 -0.14148715 -0.1840256 -0.080199115 0.119025044 0.1330645 -0.13175692 0.10297045
0.1214496 0.031652864 -0.21721902 0.082389586 -0.0042409524 -0.13176078 -0.0505133 -0.0073422696
-0.11240681 -0.15331294 -0.006609055 0.084633864 -0.055231918 -0.03702177 -0.18915686 -0.10650125
-0.06544004 0.018006628 0.2527726 0.07220407 0.22154734 0.14380115 -0.19453815 0.09591954
0.0012563898 0.13663375 -0.09475202 -0.04869148 0.08661932 -0.13302514 0.14861172 -0.2937321
-0.14774159 0.038522627 -0.030244494 0.10264623 -0.14853083 -0.05631471 -0.019268842 0.08232645
0.24041675 0.013394418 0.052780367 -0.06601683 0.19103299 -0.013233584 -0.095029354 -0.24513079
0.04999876 -0.08274361 0.1314055 -0.0041462313 -0.13896598 -0.24111378 -0.08738405 0.10787194
0.08560027 0.009753135 -0.20036937 0.109697394 -0.012723457 -0.010842064 -0.1083596 0.06513387
-0.074658126 0.14613214 0.16978887 0.060694765 0.12605694 0.13215926 0.044498146 0.00015458532
-0.1090948 0.05581225 0.067560285 -0.05981544 0.031964324 0.029609142 0.05851225 0.10930929
0.09896551 -0.007978395 -0.053843178 0.1828785 0.19978519 0.17187756 0.107688546 0.16267896
0.071341045 -0.10296425 0.35855088 -0.11305027 0.06422061 0.052687716 0.15213944 -0.005514023
-0.07748715 0.022825249 0.07086022 -0.022654174 0.17865103 0.045544162 0.011481352 -0.030821495
-0.025891334 0.12931965 0.19856007 0.069408074 0.047033545 0.09493033 -0.0022877 0.1165993
0.015510973 0.19044717 0.061378915 0.0033031031 0.41016367 0.21272616 0.20740268 -0.15600394
-0.12027421 0.06984094 0.08705381 0.121787265 0.21176483 -0.041065343 0.2336581 0.13245267
00000000: 297e 153c 7f9c e03d 4ad1 d83d f2ea 13be
00000010: 7746 eebc aec7 d9bd ba9c 543d c145 013e
00000020: da00 843c d0f9 cd3d ab95 303e 049d 693e
00000030: 3bb7 96bd 21bb eb3d d861 433d c858 553e
00000040: 79be 3a3e 1ced 0fbe d9fe 9e3e 9d2a 1f3d
00000050: 3a46 dc3d d1b2 1f3c 9a43 733d f2bd 26bc
00000060: 7a0d b3bd c503 90bc 1fd3 bf3e 2dcd f8be
00000070: 83ce d73c 9829 2d3e 6a58 0f3e 4d58 5d3e
00000080: e882 e7bc 745a da3c 836b 183e d03d 393e
00000090: 2e82 573e cbfb 653d 6b06 b13d 9c8b f3bc
000000a0: 1eb3 ba3c eb56 3f3d 4f49 fdbd 332e b1bd
000000b0: 6ba2 013e 5c1f a33d de51 e23d 1799 b83e
000000c0: 84dd 81bd 0c39 123e 1a85 da3b f321 313e
000000d0: 03f7 6c3e 626d 9abc d7ea 663e 22fa 18be
000000e0: d87f c3bd 55f7 9b3d cb96 47bb 71db 53be
000000f0: 90e8 1a3e 0a4d 953e eabb ab3d f40a b2bd
00000100: 2f2f c7bd 5b78 b43d 2d90 1bbd 8d43 113e
00000110: aa84 30be 1f7c f33c d5bc e33d 6b90 c93d
00000120: 1662 eb3d 3c5f 653e c629 12bc 5c60 c73d
00000130: 5065 903d 3155 8ebd 6125 d3bc 62b7 9d3d
00000140: f8ac 183d eb72 6a3d 7309 273e 53e2 c8bc
00000150: 4ae2 043e 3450 aa3c bb3b d4bd 4999 c0bc
00000160: 3a76 e73d ad0b 963d a05e 10be a15a abbb
00000170: 6ba3 4bbd e0ce 7b3d 479b 71bd d140 fd3d
00000180: c546 123e dc66 eebd 454b e73d 6783 ccbc
00000190: 7422 403d 5c09 1abe 38ab 35bd 0191 233e
000001a0: b607 523e 177a 7d3d f263 d8bd cb5e 873d
000001b0: 456f 9dbd 19b7 5cbd 574c 50be cc88 2c3d
000001c0: bd97 5cbe ed32 61bc 4434 0e3d 7108 9a3c
000001d0: 93d8 d8bc 9041 bd3d 59ab 55bc 09b2 a1bd
000001e0: 5db0 8c3d 02e2 10be 3571 3cbe 6f3f a4bd
000001f0: 67c3 f33d 0f42 083e 49eb 06be 2ce2 d23d
00000200: 91ba f83d 6fa6 013d aa6e 5ebe dfbb a83d
00000210: b0f7 8abb 4cec 06be 09e7 4ebd 6c97 f0bb
00000220: 8b35 e6bd 11fe 1cbe c690 d8bb 8554 ad3d
00000230: dd3a 62bd 24a4 17bd 56b2 41be 541d dabd
00000240: 6d05 86bd a382 933c 696b 813e badf 933d
00000250: 4edd 623e 9c40 133e 0235 47be 7771 c43d
00000260: 72ad a43a b8e9 0b3e 590d c2bd b870 47bd
00000270: 7865 b13d be37 08be ac2d 183e 0e64 96be
00000280: 9249 17be e7c9 1d3d 4dc3 f7bc 3038 d23d
00000290: 7718 18be 41aa 66bd b1d9 9dbc c59a a83d
000002a0: cf2f 763e 4374 5b3c 3a30 583d d533 87bd
000002b0: 279e 433e add1 58bc c09e c2bd 9103 7bbe
000002c0: 80cb 4c3d 7b75 a9bd 2a8f 063e 1cdd 87bb
000002d0: 194d 0ebe 88e6 76be 69f6 b2bd f7eb dc3d
000002e0: 324f af3d 9dcb 1f3c a12d 4dbe 07a9 e03d
000002f0: 0c76 50bc eaa2 31bc a3eb ddbd e864 853d
00000300: 5ce6 98bd aaa3 153e 22dd 2d3e 139b 783d
00000310: 1215 013e c254 073e b043 363d 2e18 2239
00000320: 186d dfbd 639b 643d 0c5d 8a3d 0901 75bd
00000330: 06ed 023d df8e f23c 8baa 6f3d 8ddd df3d
00000340: 6eae ca3d d0b7 02bc aa8a 5cbd 8044 3b3e
00000350: 7d94 4c3e ac00 303e d08b dc3d 5095 263e
00000360: 411b 923d ecde d2bd fb93 b73e e686 e7bd
00000370: 1886 833d 13cf 573d 71ca 1b3e faae b4bb
00000380: 95b1 9ebd 04fc ba3c 2a1f 913d 3f95 b9bc
00000390: 4cf0 363e 848c 3a3d 481c 3c3c 5c7d fcbc
000003a0: 101a d4bc 5f6c 043e 5553 4b3e d225 8e3d
000003b0: 3fa6 403d d56a c23d 3ded 15bb 9dcb ee3d
000003c0: bc21 7e3c 9504 433e 7568 7b3d e078 583b
000003d0: f900 d23e e3d4 593e 5e61 543e 7fbf 1fbe
000003e0: 5352 f6bd c408 8f3d 4549 b23d 9a6b f93d
000003f0: e1d8 583e 2234 28bd 1244 6f3e aca1 073e

lstm.bias_hh_l0 f4 [256]
0.09631341 0.13706318 0.10099168 -0.040602736 0.0018361649 -0.04812401 -0.088591285 0.049222074
-0.048340734 0.05745576 0.100240044 0.3218762 -0.02370061 0.25289658 0.07318151 0.07546004
0.13572384 -0.107317194 0.13830116 -0.040898904 0.2755205 -0.14091858 0.009552909 0.074561484
-0.22012872 0.071200885 0.3514816 -0.37667432 -0.15437384 0.27644083 0.14376292 0.2602692
-0.048957225 0.14623603 0.0007808951 0.013511042 0.2360211 -0.012657326 0.13265197 0.1335651
-0.039959013 0.06666624 -0.19241703 -0.007582269 0.12031842 0.09862806 -0.046956297 0.36066523
-0.02436765 0.30267465 0.05453807 0.22369261 0.44108984 0.13510978 0.12749256 -0.25808266
0.03427897 -0.04236941 0.16451363 -0.08290851 0.061914623 0.31044635 0.003953305 -0.13068955
0.036122818 0.12882021 0.008884771 0.16772555 -0.11707868 0.092148826 0.0011864441 0.032942846
0.051505543 0.22110197 0.02083749 0.052609738 0.07881683 -0.108367436 -0.05777346 -0.013526578
-0.027715337 0.11268154 0.06576023 -0.036011104 0.17643774 0.069881685 0.10111711 -0.08472825
-0.05742616 0.10974593 -0.03764537 -0.012488187 -0.111299306 0.112700485 0.07990152 0.12859103
-0.034483097 -0.096116744 0.11564871 -0.01983971 -0.006066046 -0.019647095 -0.16923162 -0.060836244
0.15546256 0.064140536 0.024838699 -0.0348356 -0.17630829 0.039835203 -0.027305331 0.2181521
-0.24218829 0.07158271 -0.06530994 -0.20319131 -0.21671462 0.12059885 -0.03886134 -0.17337032
0.22315097 -0.038737115 -0.10546638 0.089382805 -0.06696331 -0.039384503 -0.008364757 0.008161609
0.08404028 -0.16022678 -0.19243991 -0.033463556 -0.06250477 0.002068016 -0.13929275 0.03336724
-0.21366061 -0.13071339 -0.007435412 0.08171312 -0.1699115 -0.01634132 -0.22021234 -0.1505166
-0.045806848 -0.028581772 0.12896687 0.10598418 0.18954074 0.09109385 -0.077935204 0.11540667
-0.12971416 0.08861907 0.048939027 0.047156967 0.052372843 -0.1809964 0.07566282 -0.19459248
-0.07945409 0.03741425 0.02292029 0.10210273 -0.080284424 0.016005049 0.08200535 -0.025293535
0.3699575 -0.012368959 -0.1781944 -0.17776175 0.12610407 -0.053788815 0.13128072 -0.14159387
0.15398718 -0.18650332 0.1248433 -0.025560576 0.05903771 -0.42180035 -0.11399857 -0.07005971
-0.118161425 -0.006417293 -0.30573934 0.13019457 0.049185704 0.15968397 -0.121040784 0.024221838
0.086429834 0.13804188 0.17250094 0.118098475 0.11602665 0.14523193 0.048134528 0.0037078422
0.04526499 0.041606452 0.17498454 -0.006436669 0.018881965 0.089598544 -0.029425828 -0.019830907
0.11708446 -0.14332825 0.10365785 0.091155745 0.02411959 0.20376465 0.04186978 0.22245607
-0.0588968 -0.02878913 0.2573103 0.050667685 0.02237631 -0.0177103 0.09376117 0.061753217
0.120835416 0.060098164 0.12903802 0.0027490733 0.21192288 0.079200566 0.07777103 0.06607089
0.026611805 -0.00878152 0.2300605 0.099438176 0.17727572 -0.037679482 0.15742125 0.12577368
-0.04353537 0.065097935 0.019353304 0.22704218 0.2754881 0.18375628 0.20186928 -0.09667159
-0.028866842 -0.019237751 0.23347723 0.11682912 0.25610715 -0.029625904 0.08035208 0.032772783
00000000: f73f c53d 4a5a 0c3e bad4 ce3d 0e4f 26bd
00000010: 78ab f03a af1d 45bd 596f b5bd 169d 493d
00000020: ef00 46bd bb56 6b3d a74a cd3d f5cc a43e
00000030: c827 c2bc a97b 813e 30e0 953d cb8a 9a3d
00000040: 31fb 0a3e 1ec9 dbbd d29e 0d3e 9c85 27bd
00000050: 0611 8d3e f64c 10be ce83 1c3c b1b3 983d
00000060: 6c69 61be c5d1 913d 65f5 b33e 75db c0be
00000070: 2d14 1ebe a789 8d3e 9636 133e 0142 853e
00000080: 5f87 48bd e6be 153e fcb4 4c3a 6b5d 5d3c
00000090: 84af 713e ac60 4fbc ebd5 073e 4ac5 083e
000000a0: 10ac 23bd 4f88 883d f808 45be af74 f8bb
000000b0: 8169 f63d 82fd c93d 3f55 40bd 1da9 b83e
000000c0: aa9e c7bc 2cf8 9a3e 5063 5f3d ad0f 653e
000000d0: 87d6 e13e 385a 0a3e 698d 023e 6923 84be
000000e0: 1b68 0c3d 8c8b 2dbd 4376 283e f0cb a9bd
000000f0: 309a 7d3d d3f2 9e3e ba8a 813b 7bd3 05be
00000100: 85f5 133d 72e9 033e 6e91 113c 3fc0 2b3e
00000110: f2c6 efbd 86b8 bc3d 7582 9b3a 14ef 063d
00000120: 7af7 523d 8e68 623e 62b3 aa3c 4f7d 573d
00000130: b86a a13d bfef ddbd dda3 6cbd 959e 5dbc
00000140: 460b e3bc 94c5 e63d 4dad 863d 6180 13bd
00000150: 18ac 343e 211e 8f3d 7d16 cf3d 0186 adbd
00000160: b137 6bbd 79c2 e03d 0832 1abd 419b 4cbc
00000170: e4f0 e3bd 83cf e63d 68a3 a33d 5ead 033e
00000180: 263e 0dbd dbd8 c4bd 3bd9 ec3d e386 a2bc
00000190: afc5 c6bb f2f2 a0bc 0e4b 2dbe 6d2f 79bd
000001a0: 9431 1f3e 1d5c 833d 877a cb3c c6af 0ebd
000001b0: 298a 34be 3d2a 233d 6eaf dfbc 4463 5f3e
000001c0: 3500 78be f599 923d 38c1 85bd 6211 50be
000001d0: 70ea 5dbe 88fc f63d 122d 1fbd fd87 31be
000001e0: b081 643e cfaa 1ebd c2fe d7bd 550e b73d
000001f0: 0f24 89bd a551 21bd 550c 09bc 45b8 053c
00000200: 4f1d ac3d 7d12 24be f80e 45be 1511 09bd
00000210: 8002 80bd 8d87 073b c2a2 0ebe 16ac 083d
00000220: d9c9 5abe bbd9 05be c2a4 f3bb 3559 a73d
00000230: 48fd 2dbe 3bde 85bc 587f 61be 0621 1abe
00000240: f69f 3bbd 5224 eabc e40f 043e 3c0e d93d
00000250: f816 423e 6a8f ba3d 7e9c 9fbd 555a ec3d
00000260: cad3 04be ea7d b53d 4a74 483d aa27 413d
00000270: e884 563d 1f57 39be 1cf5 9a3d 4043 47be
00000280: d3b8 a2bd af3f 193d 55c3 bb3c 3c1b d13d
00000290: 296c a4bd 051d 833c 6cf2 a73d 6334 cfbc
000002a0: 126b bd3e 2da7 4abc 9878 36be 2d07 36be
000002b0: 6d21 013e a951 5cbd 746e 063e fcfd 10be
000002c0: d1ae 1d3e bafa 3ebe d8ad ff3d 6a64 d1bc
000002d0: 87d1 713d 37f6 d7be 1578 e9bd 777b 8fbd
000002e0: 9efe f1bd 2848 d2bb de89 9cbe ba51 053e
000002f0: f376 493d 3284 233e 3be4 f7bd e06c c63c
00000300: 2002 b13d da5a 0d3e 16a4 303e 9ddd f13d
00000310: 619f ed3d aeb7 143e b628 453d 45ff 723b
00000320: c867 393d 876b 2a3d 262f 333e b1ea d2bb
00000330: 5aae 9a3c 717f b73d 6f0e f1bc 6d74 a2bc
00000340: fac9 ef3d a4c4 12be 914a d43d ddaf ba3d
00000350: 7296 c53c aea7 503e a57f 2b3d 86cb 633e
00000360: c53d 71bd 2ed7 ebbc 2dbe 833e eb88 4f3d
00000370: 864e b73c 3115 91bc db05 c03d f1f0 7c3d
00000380: 8f78 f73d 7e29 763d 8b22 043e cc29 343b
00000390: 5002 593e e833 a23d 6b46 9f3d 2d50 873d
000003a0: 0001 da3c 5de0 0fbc fb94 6b3e 3ea6 cb3d
000003b0: c487 353e cd55 1abd 0933 213e d1ca 003e
000003c0: 2552 32bd 1152 853d d28a 9e3c bf7d 683e
000003d0: c70c 8d3e 9b2a 3c3e d2b6 4e3e c1fb c5bd
000003e0: 287a ecbc 7d98 9dbc a814 6f3e 1b44 ef3d
000003f0: 7a20 833e 06b2 f2bc a28f a43d c13c 063d

lstm.weight_ih_l1 f4 [256, 64]
-0.07614593 0.00020636489 0.048550893 -0.02852454 0.18915918 0.15913564 0.072684586 0.13245352
-0.012048444 -0.16057695 -0.07833003 -0.07031389 0.14634158 -0.08229239 0.008451461 -0.09695041
0.11332711 0.18406972 -0.00510618 -0.14349553 -0.08102431 0.07629519 0.08731508 -0.0471956
0.017980665 -0.16337278 0.07945037 0.07875353 -0.0019577614 -0.074204944 0.031955503 -0.14874141
0.07347096 0.15029453 -0.019332826 -0.045075674 0.15452567 0.04790503 -0.033880614 0.031273656
-0.045566417 -0.08180033 -0.023768498 0.1112061 -0.05481944 -0.003999647 -0.16503327 0.068370946
-0.10479729 0.2746743 -0.05560163 -0.050042365 0.055856936 -0.05412156 0.029921947 0.023423627
-0.03231086 -0.08094912 -0.017473403 -0.06786906 0.028490718 0.14871697 -0.063574836 0.07143112
0.07423389 -0.0993565 0.07459409 -0.10099106 -0.032151636 0.017284097 -0.13427733 0.044431224
0.01887864 0.042719416 -0.077406175 -0.02937534 -0.047599863 -0.08316455 0.029476035 -0.009157659
0.03802615 0.102238104 -0.0062144785 -0.09428144 0.032123227 -0.107609734 -0.085830934 0.07917286
0.124639615 -0.014259058 0.00792151 -0.073350534 -0.13544413 0.093049146 0.009550282 0.02792553
0.056677174 0.12281343 0.0834832 -0.048693106 0.112109326 0.021777578 -0.1192536 -0.083615415
0.10099237 0.07528549 -0.091726646 -0.16708182 -0.09595779 -0.14206037 -0.16629517 0.07681699
0.06043308 0.146421 -0.037298135 0.033745117 0.1094609 -0.1190687 0.15332949 0.12789813
0.1492184 0.10144315 0.059451044 0.09147516 0.081042826 0.10853339 0.12442215 0.07616491
0.10652357 0.19932157 -0.01650743 0.042053465 0.06167381 -0.029112814 -0.027575007 -0.015977154
0.13180102 0.040003575 0.04043282 0.07504823 0.057552204 -0.111726604 -0.04252165 0.09397554
0.031180859 -0.02203442 -0.024807785 0.07181949 -0.046465278 -0.14540425 -0.0432647 -0.10315538
0.03650574 -0.14996015 -0.14478691 -0.06396286 -0.052203547 -0.009478336 0.06891404 -0.014457125
-0.15140295 0.028317342 -0.0027170284 0.04194069 -0.09343745 0.030927436 -0.13584618 0.112471685
0.0965031 -0.015035519 -0.04050834 -0.022145385 -0.061840918 -0.13822782 0.053718165 0.08695375
0.04700437 0.012394331 0.03352292 -0.0041571776 0.04327105 -0.12006345 -0.050209034 -0.11898429
0.11264858 -0.016980363 0.1350844 -0.05944049 -0.1055152 -0.023247644 0.008283028 0.00584186
0.16515812 0.34063724 -0.022331523 0.0034361489 0.070497885 0.21356992 -0.063347526 0.15703489
0.014511806 -0.05945297 -0.35696158 -0.09035334 -0.042083982 -0.13939746 -0.024671271 0.022484398
0.095681675 0.0059653753 -0.026887573 0.012889824 0.060065772 -0.04713349 0.05984941 -0.09394015
0.14100508 -0.2651817 0.052172218 -0.019972302 -0.06599871 -0.16308717 -0.06847264 -0.025226656
-0.08170863 0.016290305 -0.05061736 0.03636643 -0.016888246 -0.084666796 -0.14571142 0.030049479
0.16168179 -0.09365294 -0.12747386 0.08422948 -0.088143036 -0.18056671 -0.027905583 -0.1348252
-0.08470607 -0.051187493 -0.0801087 0.092204034 0.07520262 -0.23931596 0.009057525 -0.12504277
0.03602114 0.0091672875 -0.076041594 -0.11229728 -0.21535815 0.06511717 0.11788595 0.05927277
00000000: 66f2 9bbd a763 5839 4ddd 463d 4cac e9bc
00000010: f2b2 413e 74f4 223e a8db 943d e5a1 073e
00000020: d666 45bc 496e 24be 7f6b a0bd bb00 90bd
00000030: 91da 153e ea88 a8bd ff77 0a3c f08d c6bd
00000040: 0b18 e83d c67c 3c3e be51 a7bb 7ef0 12be
00000050: 13f0 a5bd a740 9c3d 40d2 b23d 2c50 41bd
00000060: 304c 933c 324b 27be e0b6 a23d 8849 a13d
00000070: c94d 00bb c3f8 97bd c6e3 023d ab4f 18be
00000080: f177 963d cfe6 193e e05f 9ebc 45a1 38bd
00000090: fa3b 1e3e 1138 443d 66c6 0abd ce18 003d
000000a0: daa3 3abd ee86 a7bd 27b6 c2bc 06c0 e33d
000000b0: 598a 60bd 790f 83bb 7bfe 28be 1106 8c3d
000000c0: f69f d6bd 1ca2 8c3e 89be 63bd 39f9 4cbd
000000d0: 3eca 643d 92ae 5dbd df1e f53c e8e2 bf3c
000000e0: 6458 04bd a7c8 a5bd 6224 8fbc effe 8abd
000000f0: 5e65 e93c 4349 183e 8633 82bd 7b4a 923d
00000100: f007 983d 6c7b cbbd c9c4 983d 67d4 cebd
00000110: 6fb1 03bd 6197 8d3c ff7f 09be 84fd 353d
00000120: 61a7 9a3c 8efa 2e3d 2187 9ebd 8ea4 f0bc
00000130: 13f8 42bd 2d52 aabd ba77 f13c 010a 16bc
00000140: 4fc1 1b3d 3662 d13d d3a2 cbbb a116 c1bd
00000150: a593 033d 7e62 dcbd 21c8 afbd 6125 a23d
00000160: 0e43 ff3d d39e 69bc 39c9 013c ce38 96bd
00000170: deb1 0abe 8d90 be3d c978 1c3c 15c4 e43c
00000180: 5326 683d 9c85 fb3d 3df9 aa3d 6c72 47bd
00000190: 9399 e53d e466 b23c 3b3b f4bd 8f3e abbd
000001a0: 16d5 ce3d 472f 9a3d 2edb bbbd 7f17 2bbe
000001b0: 8585 c4bd 4678 11be 4849 2abe 3a52 9d3d
000001c0: ad88 773d 63ef 153e eec5 18bd 5238 0a3d
000001d0: 092d e03d 4ada f3bd 6802 1d3e baf7 023e
000001e0: b5cc 183e 6dc1 cf3d f082 733d 5457 bb3d
000001f0: c8f9 a53d c146 de3d 0ad1 fe3d 59fc 9b3d
00000200: 0829 da3d f41a 4c3e 973a 87bc 4140 2c3d
00000210: ad9d 7c3d ff7d eebc fbe4 e1bc 85e2 82bc
00000220: d9f6 063e cada 233d e29c 253d e3b2 993d
00000230: dcbb 6b3d ebd0 e4bd 2f2b 2ebd 3f76 c03d
00000240: 006f ff3c 8781 b4bc b239 cbbc 1916 933d
00000250: 6052 3ebd dae4 14be 5336 31bd 2143 d3bd
00000260: 0b87 153d 278f 19be 0543 14be f6fe 82bd
00000270: 63d3 55bd 064b 1bbc ce22 8d3d 94dd 6cbc
00000280: 6009 1bbe c5f9 e73c 2c10 32bb 00ca 2b3d
00000290: 225c bfbd 895b fd3c 431b 0bbe 8e57 e63d
000002a0: 6ba3 c53d 8a57 76bc 13ec 25bd 3d6a b5bc
000002b0: e74c 7dbd 988b 0dbe 9407 5c3d cf14 b23d
000002c0: a787 403d 9811 4b3c 544f 093d ef38 88bb
000002d0: fc3c 313d d3e3 f5bd fda7 4dbd 09ae f3bd
000002e0: 4cb4 e63d 671a 8bbc 9153 0a3e df77 73bd
000002f0: 5a18 d8bd d871 bebc 8ab5 073c 136d bf3b
00000300: 361f 293e 0168 ae3e 99f0 b6bc 0331 613b
00000310: 3261 903d 13b2 5a3e 59bc 81bd c1cd 203e
00000320: edc2 6d3c f584 73bd abc3 b6be 2c0b b9bd
00000330: 4160 2cbd 35be 0ebe 681b cabc 3331 b83c
00000340: c1f4 c33d 3279 c33b 5443 dcbc d72f 533c
00000350: 8707 763d 0c0f 41bd a824 753d b263 c0bd
00000360: a363 103e e5c5 87be 89b2 553d f49c a3bc
00000370: 552a 87bd 5300 27be 623b 8cbd 22a8 cebc
00000380: db56 a7bd 3f73 853c 2654 4fbd f7f4 143d
00000390: 3859 8abc c965 adbd 6035 15be 532a f63c
000003a0: e98f 253e 1dcd bfbd 8288 02be 8180 ac3d
000003b0: 5684 b4bd 7be6 38be 409a e4bc 9e0f 0abe
000003c0: 607a adbd faa9 51bd 0810 a4bd 78d5 bc3d
000003d0: d503 9a3d 3e0f 75be 0366 143c 360b 00be
000003e0: e78a 133d 6432 163c b2bb 9bbd 1efc e5bd
000003f0: d986 5cbe 275c 853d 306e f13d 01c8 723d

lstm.weight_hh_l1 f4 [256, 64]
0.034771033 -0.15092243 -0.0732498 -0.019846033 -0.063877456 -0.0035354097 -0.17416349 0.13500959
0.13098244 -0.015595499 -0.07211814 0.14949974 -0.016853007 0.101381525 -0.028704314 -0.15621628
-0.06962261 0.023194214 -0.17985684 0.032144472 -0.08926805 0.09886809 0.030869966 0.10040697
-0.08915247 -0.09878261 -0.18693405 -0.0039214864 -0.041758996 0.06271306 -0.15539004 -0.0016061245
-0.020468457 0.042867914 0.05472803 -0.09989707 0.06469157 -0.11855652 -0.1767563 0.05239377
-0.005377717 0.030835465 -0.003512336 -0.07838356 -0.07193364 -0.10637872 -0.17087598 -0.0020263493
0.14320032 -0.033370297 0.13974606 0.064489365 0.16962747 0.037683155 0.042963993 0.0041882144
-0.06770024 0.22208856 0.2060379 -0.067369305 -0.16650352 0.035314478 -0.017991714 0.02776293
0.07763642 0.004944179 -0.25277293 0.26443827 0.04320611 -0.023665538 0.038694337 0.009688932
-0.0031447643 0.11656065 -0.0330026 0.048103083 -0.008786645 0.089238845 0.051290892 0.049243864
0.1504608 -0.011039099 -0.080418214 -0.097427465 -0.15121652 0.079518475 0.13342777 0.10594451
-0.12294142 -0.10650507 -0.24861917 -0.035608422 0.071678326 -0.05313956 -0.013688551 0.09416081
-0.36298633 -0.008635289 0.12751846 0.12691306 -0.085466124 -0.05378954 0.16507971 -0.08663419
-0.16763453 0.06204211 -0.099174865 -0.101197764 0.051749088 0.004544103 0.20534436 0.037740774
0.10158194 0.028368937 0.35075814 -0.0010179417 0.089722164 -0.015569184 0.09827941 0.077805355
-0.023613468 0.07911956 0.11841012 0.10641751 -0.18231 -0.022894144 0.053829085 0.09823502
0.037975386 -0.15042108 0.020385932 0.030087603 0.0428815 0.01960023 0.021049075 0.045702673
0.21268177 0.043929186 0.026729075 0.15246964 0.104779035 0.090065576 0.08487141 0.0148614505
0.014012045 -0.006198615 0.043245338 -0.069147296 -0.16031833 0.20541146 -0.10041313 -0.013593419
-0.009968725 -0.0071150917 0.09645009 -0.08709613 -0.07077717 0.011911843 -0.0914484 -0.005132871
0.10033782 -0.14840052 0.086072 -0.027371138 0.00021023181 0.014253199 0.033036444 0.051364876
0.04976801 -0.07483444 0.0054458375 -0.011943348 0.017732644 0.031991396 0.0703228 -0.1035942
0.10624048 0.026952695 -0.0017046755 0.036509592 0.075691216 0.16492675 0.059622366 0.0014976419
-0.034723636 -0.00035823602 0.07300136 -0.11153733 -0.1339982 0.044304367 0.15074034 0.07659911
0.024635121 -0.15165755 -0.24692395 0.005057375 -0.07342889 -0.17039298 -0.23395616 0.06335871
0.05747246 0.037963953 -0.092300326 0.067694016 -0.020324675 0.1767166 0.32148874 -0.11678717
0.19826818 -0.0033498092 -0.15930775 0.051112495 -0.09516855 0.08465126 0.1118373 0.1694094
-0.11796543 -0.0053949966 -0.14382309 -0.032480877 -0.009627743 0.18511811 -0.095554434 -0.05955124
-0.18693498 -0.18562895 0.057682004 -0.19691727 -0.040257215 -0.13143992 -0.28665873 -0.08174176
-0.035770483 -0.1470424 -0.082503475 -0.119988084 -0.1052027 -0.2638733 -0.056341894 0.13177466
0.010668327 0.06501274 0.12390061 -0.042336147 0.21325447 0.03508107 -0.035877317 0.040736135
-0.014979894 0.08615231 0.14304948 -0.12773708 0.021437826 -0.13730258 0.024162712 0.05129081
00000000: 126c 0e3d 698b 1abe fe03 96bd 2694 a2bc
00000010: 2fd2 82bd 55b2 67bb ea57 32be f43f 0a3e
00000020: 4320 063e 4484 7fbc adb2 93bd 7616 193e
00000030: 510f 8abc 1ea1 cf3d 4f25 ebbc 29f7 1fbe
00000040: 4d96 8ebd cb01 be3c 642c 38be eca9 033d
00000050: 2bd2 b6bd 5a7b ca3d 03e3 fc3c 2ba2 cd3d
00000060: 9295 b6bd 894e cabd a46b 3fbe d07f 80bb
00000070: 7b0b 2bbd b46f 803d 911e 1fbe 9884 d2ba
00000080: 77ad a7bc 4496 2f3d 802a 603d d696 ccbd
00000090: 047d 843d c3cd f2bd 9aff 34be da9a 563d
000000a0: 8f37 b0bb a89a fc3c 382f 66bb 8f87 a0bd
000000b0: f251 93bd 16dd d9bd 1dfa 2ebe 80cc 04bb
000000c0: 1ba3 123e 4baf 08bd 9719 0f3e 0013 843d
000000d0: d3b2 2d3e a759 1a3d 03fb 2f3d 4a3d 893b
000000e0: 6ca6 8abd 2f6b 633e 99fb 523e ebf8 89bd
000000f0: e67f 2abe eaa5 103d 5c63 93bc 166f e33c
00000100: d8ff 9e3d c802 a23b 746b 81be 7464 873e
00000110: e4f8 303d 3bde c1bc f47d 1e3d 54be 1e3c
00000120: 6418 4ebb 5ab7 ee3d bc2d 07bd bd07 453d
00000130: dcf5 0fbc dbc2 b63d 6616 523d efb3 493d
00000140: 6512 1a3e 56dd 34bc 4eb2 a4bd 0d88 c7bd
00000150: 81d8 1abe 95da a23d 4aa1 083e 6ff9 d83d
00000160: b6c8 fbbd 551f dabd 0696 7ebe 23da 11bd
00000170: 16cc 923d dea8 59bd f245 60bc 62d7 c03d
00000180: 58d9 b9be 077b 0dbc 3394 023e 7ff5 013e
00000190: dd08 afbd 6c52 5cbd a80a 293e 446d b1bd
000001a0: 63a8 2bbe de1f 7e3d 311c cbbd c640 cfbd
000001b0: daf6 533d b3e6 943b cb45 523e 1296 1a3d
000001c0: 310a d03d f965 e83c 9296 b33e 756c 85ba
000001d0: 41c0 b73d e415 7fbc b746 c93d 6a58 9f3d
000001e0: 0871 c1bc 7009 a23d 0181 f23d 6cf1 d93d
000001f0: 79af 3abe 808c bbbc e37b 5c3d 712f c93d
00000200: 148c 1b3d fc07 1abe 6600 a73c 477a f63c
00000210: 83a4 2f3d a990 a03c 1c6f ac3c ba32 3b3d
00000220: 40c9 593e 17ef 333d eff6 da3c 0021 1c3e
00000230: 6496 d63d 4d74 b83d 10d1 ad3d 717d 733c
00000240: c792 653c c01d cbbb 0622 313d 199d 8dbd
00000250: 7d2a 24be 6257 523e 66a5 cdbd efb6 5ebc
00000260: dd53 23bc b725 e9bb a087 c53d 755f b2bd
00000270: 9ff3 90bd e429 433c 4c49 bbbd a531 a8bb
00000280: ea7d cd3d 4ef6 17be 8446 b03d 7039 e0bc
00000290: ac71 5c39 4086 693c 3951 073d fa63 523d
000002a0: 8ad9 4b3d cd42 99bd ff72 b23b 08ae 43bc
000002b0: 0d44 913c 6909 033d 6605 903d 3229 d4bd
000002c0: 9c94 d93d e6cb dc3c 6b6f dfba 158b 153d
000002d0: ff03 9b3d 8fe2 283e 9536 743d 864c c43a
000002e0: 5f3a 0ebd a0d1 bbb9 bd81 953d af6d e4bd
000002f0: d336 09be 7f78 353d ad5b 1a3e ffdf 9c3d
00000300: 98cf c93c 1e4c 1bbe a2d9 7cbe 56b8 a53b
00000310: e361 96bd 7f7b 2ebe 3492 6fbe 36c2 813d
00000320: 3e68 6b3d 1780 1b3d f407 bdbd 29a3 8a3d
00000330: ef7f a6bc 32f5 343e 2c9a a43e 1d2e efbd
00000340: d006 4b3e 7988 5bbb 9221 23be 565b 513d
00000350: bbe7 c2bd a45d ad3d f40a e53d a879 2d3e
00000360: dc97 f1bd 83c8 b0bb 5c46 13be ab0a 05bd
00000370: aebd 1dbc 9a8f 3d3e 0bb2 c3bd 00ec 73bd
00000380: e26b 3fbe 8415 3ebe f743 6c3d aea4 49be
00000390: c0e4 24bd 3098 06be efc4 92be 3968 a7bd
000003a0: 1284 12bd 4892 16be 95f7 a8bd 50bc f5bd
000003b0: 8374 d7bd 671a 87be c2c6 66bd f0ef 063e
000003c0: 35ca 2e3c 6625 853d 9abf fd3d ab68 2dbd
000003d0: 615f 5a3e 2bb1 0f3d 18f4 12bd efda 263d
000003e0: 3b6e 75bc 9f70 b03d 907b 123e 82cd 02be
000003f0: 619e af3c 0c99 0cbe e1f0 c53c 5016 523d

lstm.bias_ih_l1 f4 [256]
0.0895946 0.12528816 -0.030066425 0.030055912 -0.07534325 -0.048829343 0.1072436 -0.02185281
0.022570867 -0.03917831 0.022808129 -0.13783643 0.0031422677 -0.05294251 0.03642097 -0.006742549
-0.022004863 0.12575263 0.10503836 0.06073842 -0.09919397 0.16236155 0.0030802663 0.0045031863
0.009437964 0.004626879 -0.08835351 0.046859544 0.0026759391 0.17659537 0.10759205 0.04781362
0.0945195 0.042284284 0.19045699 -0.2687049 0.091850266 0.082236096 0.13658702 0.1521082
-0.16411948 -0.05375936 0.116113186 0.08088739 0.18180443 -0.052675493 -0.0007260582 0.019015789
0.061434843 -0.07978314 0.179025 0.06823274 -0.02694525 -0.06355362 0.09564659 0.17496735
0.05876609 -0.04475693 0.2668847 0.11611616 -0.042064056 -0.0410315 0.004961186 0.11305195
0.09063348 -0.08167064 0.047731016 0.06021942 -0.024424536 0.0619767 0.12433207 0.15106386
-0.04094646 -0.00060003775 -0.020060718 0.12329283 0.08214011 -0.018527403 -0.09153903 0.07959317
0.09886828 0.058696374 -0.09747408 0.12330798 -0.059200354 0.06436364 0.15060537 0.079158455
-0.057400227 0.13640067 0.132665 -0.15150045 0.14014168 -0.09365401 -0.021740165 0.051359616
0.13971639 0.10981138 0.08533315 -0.0606793 -0.022775961 0.07383368 -0.08543616 -0.050878204
0.027554352 0.06659105 -0.02451098 0.2000592 -0.026662009 0.15449265 -0.057509124 -0.01937252
-0.08625301 0.112803414 0.107918054 -0.10710102 -0.0673143 -0.014507814 0.11182544 0.12140364
0.12885314 0.0732567 0.084297016 0.11067485 0.0181143 -0.025041394 0.003706332 -0.09297541
-0.0054304176 0.012523536 0.07416028 0.04979211 -0.032997496 -0.11904092 0.018441333 -0.09489792
-0.13384356 0.08137049 0.053970255 0.08589669 0.08279556 0.14199077 -0.06683764 -0.13008417
0.07248102 -0.027770292 -0.061733305 0.12207968 0.060831003 -0.07791918 -0.024854878 0.09519672
-0.13195914 -0.06577531 -0.023302648 0.11052922 -0.09919673 -0.10421423 -0.09158866 -0.1472177
-0.028843364 0.05699877 0.038355216 0.06532156 -0.046542566 -0.119171456 -0.12746662 0.069208704
-0.12997667 -0.088336125 0.018647263 0.04828046 -0.076810785 0.11806443 -0.047188904 0.102349766
0.05196148 -0.044859458 0.009701664 -0.048884533 0.07236877 0.06566091 0.091513395 -0.14715509
0.11200486 0.06981127 0.05191292 0.003898205 0.005926339 -0.012045617 0.09400169 -0.015058896
0.098949 0.07842462 0.048614226 -0.11049784 0.19205002 0.023371404 -0.05213041 -0.0414903
0.12891039 0.10574507 0.08927232 0.07642901 0.095204346 0.008657844 -0.039642468 0.12467654
0.07487799 0.09844224 0.073480494 0.077678256 -0.043705825 0.16212644 0.124313235 0.07329656
-0.036419842 0.18407333 0.14233536 -0.010513734 0.0948675 -0.047396153 0.0008644939 0.034501165
0.073752224 0.115970485 0.037411943 -0.021480117 0.1857729 0.19189923 0.12509975 -0.08717563
0.14810266 0.053805236 0.026453365 0.19079266 0.21342006 0.019133084 0.12975718 0.19707365
0.10126785 0.14356013 0.18063816 0.09701908 0.11112915 0.014357042 -0.04864738 -0.09138515
0.1175837 -0.023187846 0.05953758 -0.08407224 -0.1228501 0.04589125 -0.07634383 0.1373207
00000000: 607d b73d 8a4b 003e dd4d f6bc d137 f63c
00000010: 904d 9abd 4701 48bd 88a2 db3d aa04 b3bc
00000020: 8ae6 b83c 7079 20bd 1dd8 ba3c fe24 0dbe
00000030: 81ee 4d3b 3fda 58bd 282e 153d 9af0 dcbb
00000040: 8b43 b4bc 4cc5 003e 5a1e d73d d9c8 783d
00000050: 3526 cbbd 1b42 263e 4bde 493b 778f 933b
00000060: b1a1 1a3c 139d 973b aff2 b4bd cbef 3f3d
00000070: cf5e 2f3b 6bd5 343e 3959 dc3d 37d8 433d
00000080: 7193 c13d 4932 2d3d 2807 433e b093 89be
00000090: fe1b bc3d 666b a83d 78dd 0b3e 41c2 1b3e
000000a0: f00e 28be c632 5cbd c0cc ed3d 4aa8 a53d
000000b0: f12a 3a3e 42c2 57bd f154 3eba 00c7 9b3c
000000c0: 1aa3 7b3d 5865 a3bd 5452 373e 9bbd 8b3d
000000d0: 49bc dcbc 6628 82bd 5ce2 c33d a42a 333e
000000e0: b6b4 703d 0b53 37bd 1da5 883e 4fce ed3d
000000f0: 5c4b 2cbd a510 28bd 7291 a23b c887 e73d
00000100: 0c9e b93d f042 a7bd 9981 433d a3a8 763d
00000110: f715 c8bc 48db 7d3d d0a1 fe3d 7cb0 1a3e
00000120: 7ab7 27bd da4b 1dba 6056 a4bc f480 fc3d
00000130: 1339 a83d c8c6 97bc d178 bbbd be01 a33d
00000140: 747b ca3d 9c6b 703d 7ea0 c7bd e588 fc3d
00000150: 127c 72bd 16d1 833d 4b38 1a3e d41d a23d
00000160: 801c 6bbd 9eac 0b3e 55d9 073e ef22 1bbe
00000170: 4d81 0f3e accd bfbd 6e18 b2bc 765e 523d
00000180: d011 0f3e cae4 e03d 26c3 ae3d dc8a 78bd
00000190: a794 babc 1d36 973d 27f9 aebd aa65 50bd
000001a0: aab9 e13c e360 883d 40cb c8bc 52dc 4c3e
000001b0: 496a dabc 5233 1e3e b08e 6bbd 1eb3 9ebc
000001c0: 6ba5 b0bd 7a05 e73d 2404 dd3d c857 dbbd
000001d0: 14dc 89bd 2fb2 6dbc bc04 e53d 79a2 f83d
000001e0: 14f2 033e 9c07 963d eaa3 ac3d 7fa9 e23d
000001f0: 7164 943c 9c23 cdbc efe5 723b e469 bebd
00000200: a5f1 b1bb 842f 4d3c 58e1 973d d0f2 4b3d
00000210: 6228 07bd bacb f3bd 4712 973c d759 c2bd
00000220: 490e 09be 92a5 a63d ea0f 5d3d 9bea af3d
00000230: b890 a93d 0766 113e 2ce2 88bd c934 05be
00000240: ee70 943d 867e e3bc 10dc 7cbd e904 fa3d
00000250: ee29 793d 1794 9fbd 759c cbbc 7ff6 c23d
00000260: 4c20 07be 35b5 86bd 32e5 bebc 255d e23d
00000270: a827 cbbd 456e d5bd d692 bbbd 3dc0 16be
00000280: eb48 ecbc 8b77 693d 5c1a 1d3d 4fc7 853d
00000290: 6ba3 3ebd 2a10 f4bd 9c86 02be 4bbd 8d3d
000002a0: 9b18 05be 92e9 b4bd 25c2 983c bbc1 453d
000002b0: f94e 9dbd c4cb f13d 2749 41bd c19c d13d
000002c0: 90d5 543d 8dbe 37bd baf3 1e3c 263b 48bd
000002d0: 1436 943d 3a79 863d 606b bb3d d3af 16be
000002e0: ce62 e53d 36f9 8e3d a4a2 543d 0779 7f3b
000002f0: bc31 c23b fb5a 45bc f583 c03d 96b9 76bc
00000300: c6a5 ca3d 169d a03d b61f 473d b14c e2bd
00000310: c3a8 443e 6375 bf3c b286 55bd bcf1 29bd
00000320: 1601 043e df90 d83d 68d4 b63d d086 9c3d
00000330: 7ffa c23d a1d9 0d3c 2460 22bd 6a56 ff3d
00000340: a259 993d 169c c93d f17c 963d c715 9f3d
00000350: e104 33bd 7904 263e f097 fe3d 821c 963d
00000360: f92c 15bd b87d 3c3e 5cc0 113e cc41 2cbc
00000370: e449 c23d 7822 42bd 349f 623a 1851 0d3d
00000380: 680b 973d ef81 ed3d 443d 193d 12f7 afbc
00000390: 403b 3e3e 3b81 443e 261a 003e 2389 b2bd
000003a0: 39a8 173e e162 5c3d bab4 d83c 275f 433e
000003b0: ca8a 5a3e fcbc 9c3c 11df 043e adcd 493e
000003c0: 8565 cf3d 6d01 133e 36f9 383e f0b1 c63d
000003d0: ae97 e33d cc39 6b3c 7a42 47bd 2328 bbbd
000003e0: b9cf f03d 70f4 bdbc addd 733d 112e acbd
000003f0: d598 fbbd 77f8 3b3d 275a 9cbd cc9d 0c3e

lstm.bias_hh_l1 f4 [256]
-0.07515228 -0.087979354 0.053488296 0.09101176 -0.020722762 -0.010622925 0.0031028513 -0.08041107
0.00016122598 0.06313 -0.0025741667 0.096286714 0.11484395 0.08823896 0.14354382 -0.019170878
0.02915399 0.06646005 -0.05358379 0.10456503 0.08808116 -0.001261423 0.14199562 -0.11872455
0.00562483 0.08530861 0.14373052 0.018115036 -0.035261698 0.22800437 0.055503413 -0.041196767
0.2550878 -0.11731065 0.083708294 -0.14485729 0.12273973 0.09640658 0.11453463 0.15784545
-0.029251225 -0.033774167 0.10316706 0.0879091 -0.00130647 0.056692984 0.14430633 0.089900136
0.14905521 -0.08729382 0.19802156 -0.08359161 -0.053588253 0.0322204 0.10251108 -0.016576635
0.018373335 -0.08188218 0.055209443 0.10837389 -0.05829093 -0.015892059 0.025236279 -0.05496659
0.054875597 -0.0021239438 0.13905567 -0.0053712265 0.17184672 -0.068994686 0.046201915 -0.062903926
-0.10414335 0.0950028 -0.124359414 0.15658185 -0.049151026 -0.010613031 -0.022346841 -0.13304298
0.03606511 -0.018768972 -0.026311856 0.027408797 0.0130539695 0.10461806 0.05839767 0.086733565
-0.0050474494 0.06694404 -0.10472121 -0.10686891 -0.013703338 0.0037929318 0.09034407 -0.08399659
0.048527244 -0.022993868 0.15319328 -0.0505646 0.03919008 0.020062916 -0.0828099 0.14199318
-0.11138938 0.071254365 0.12704328 0.16398203 -0.117507964 0.011332223 -0.054229863 -0.058859505
-0.037361797 0.09714405 -0.042968567 -0.0050707683 -0.014159446 -0.01420875 0.058571137 0.015944302
0.047521096 -0.06801564 0.07767069 -0.012170109 -0.003207881 -0.054792043 0.13392074 -0.10418022
-0.083838426 -0.11122158 0.097494215 0.13032341 0.0025742247 0.024659647 -0.0061568203 0.044996753
0.07822396 0.06825285 0.014090704 -0.0477429 0.08304247 -0.0337951 -0.075021625 0.060173806
-0.10368961 0.048814513 0.07477876 0.0037200188 0.09177789 0.044041924 0.14143844 0.059988406
-0.011753631 -0.074313425 -0.091164194 0.06208708 -0.07526271 0.08879738 -0.02329525 0.09072916
-0.09313838 -0.045704123 -0.011495637 0.076538555 0.034507807 0.08843948 0.07209286 0.0012523162
-0.041342806 -0.061507836 -0.10548482 -0.07531036 -0.030533353 0.08142008 0.013660893 0.08766305
0.13001092 0.0800886 0.05025196 0.08685171 0.0768968 0.026042711 0.088898405 0.04521594
-0.089425296 -0.10837722 0.08594985 0.15769947 -0.0073387795 -0.122447 -0.020753736 -0.044940885
-0.003000985 0.0029002042 -0.1142847 -0.027092705 0.18626799 -0.013114985 -0.036778886 0.0022009504
0.048952766 0.053529244 0.058716007 0.10731652 -0.026701264 -0.0057693757 0.1831499 0.07479821
0.16374505 0.04315909 0.11819912 0.0887545 -0.02175663 0.102069065 -0.031976834 0.07059418
-0.0072512603 -0.009552406 0.12839755 0.020315692 0.0110531645 0.0061330735 -0.09588993 -0.043665547
0.1491409 0.056540728 0.12412377 0.063443 0.014747185 0.03234615 -0.029282164 -0.08609265
0.16711795 0.19506936 -0.057877757 0.10701868 0.047314372 -0.013091212 0.11752292 0.17420824
0.060090758 0.12812825 0.04944266 -0.016412169 0.0025511663 0.0395277 0.17558205 0.09622838
0.11997237 -0.001131706 0.17234784 0.06668917 -0.060770873 0.20739649 0.11721932 0.06337522
00000000: 70e9 99bd 852e b4bd 8b16 5b3d 6064 ba3d
00000010: c8c2 a9bc c70b 2ebc 3559 4b3b 8fae a4bd
00000020: c50e 2939 4d4a 813d 5ab3 28bb f831 c53d
00000030: 4e33 eb3d a1b6 b43d 27fd 123e 3f0c 9dbc
00000040: 59d4 ee3c 351c 883d ad7a 5bbd 3126 d63d
00000050: e563 b43d 5556 a5ba 4d67 113e db25 f3bd
00000060: 7e50 b83b 48b6 ae3d 182e 133e fc65 943c
00000070: 926e 10bd fa79 693e 8c57 633d f1bd 28bd
00000080: de9a 823e 9140 f0bd 416f ab3d 7855 14be
00000090: f85e fb3d d070 c53d 2291 ea3d 3da2 213e
000000a0: 44a0 efbc c856 0abd 4049 d33d b009 b43d
000000b0: dc3d abba e736 683d 0ac5 133e 901d b83d
000000c0: eea1 183e 1ac7 b2bd 2ac6 4a3e 1432 abbd
000000d0: 5b7f 5bbd 8af9 033d 54f1 d13d b9cb 87bc
000000e0: ad83 963c d8b1 a7bd 4c23 623d 21f3 dd3d
000000f0: 78c2 6ebd 1030 82bc 50bc ce3c a624 61bd
00000100: 3cc5 603d dd31 0bbb 9c64 0e3e 1d01 b0bb
00000110: 96f8 2f3e 164d 8dbd 383e 3d3d c6d3 80bd
00000120: 1c49 d5bd d490 c23d 26b0 febd fe56 203e
00000130: 9652 49bd 47e2 2dbc b910 b7bc 6b3c 08be
00000140: 02b9 133d 63c1 99bc f68b d7bc 6a88 e03c
00000150: 51e0 553c fe41 d63d 6532 6f3d 5ea1 b13d
00000160: 1365 a5bb f519 893d 1378 d6bd 16de dabd
00000170: f783 60bc d692 783b 5006 b93d 6706 acbd
00000180: 81c4 463d a35d bcbc b3de 1c3e d31c 4fbd
00000190: c785 203d fc5a a43c 3d98 a9bd a966 113e
000001a0: 1e20 e4bd cfed 913d a217 023e e8ea 273e
000001b0: 04a8 f0bd caaa 393c 2220 5ebd aa16 71bd
000001c0: af08 19bd 76f3 c63d cfff 2fbd b028 a6bb
000001d0: 05fd 67bc d1cb 68bc 4ae8 6f3d a09d 823c
000001e0: 7ba5 423d c94b 8bbd d011 9f3d 2365 47bc
000001f0: 503b 52bb 9f6d 60bd 8522 093e 705c d5bd
00000200: 7bb3 abbd 24c8 e3bd 0cab c73d 8073 053e
00000210: 53b4 283b 0703 ca3c 27bf c9bb 844e 383d
00000220: e233 a03d 26c8 8b3d b2dc 663c 0f8e 43bd
00000230: 2c12 aa3d bb6c 0abd f0a4 99bd cf78 763d
00000240: 385b d4bd baf1 473d 9b25 993d 8fcb 733b
00000250: 0cf6 bb3d 4e65 343d 3dd5 103e 67b6 753d
00000260: 4d92 40bc a331 98bd 4bb4 babd 064f 7e3d
00000270: 5623 9abd 67db b53d aed5 bebc 36d0 b93d
00000280: 56bf bebd 3f34 3bbd 3258 3cbc 3fc0 9c3d
00000290: 0f58 0d3d c21f b53d 6ca5 933d c224 a43a
000002a0: 1357 29bd a4ef 7bbd 6d08 d8bd 513c 9abd
000002b0: 1521 fabc 92bf a63d f0d1 5f3c af88 b33d
000002c0: 9521 053e 7e05 a43d 00d5 4d3d 4fdf b13d
000002d0: 127c 9d3d 8657 d53c 5e10 b63d 5934 393d
000002e0: 9c24 b7bd e0f4 ddbd 7a06 b03d f87b 213e
000002f0: 257a f0bb 7ec5 fabd bd03 aabc ef13 38bd
00000300: 2cac 44bb 5a11 3e3b 190e eabd 85f1 ddbc
00000310: 09bd 3e3e 3ce0 56bc 75a5 16bd d23d 103b
00000320: b282 483d 7b41 5b3d 3280 703d c3c8 db3d
00000330: 9cbc dabc 080d bdbb a68b 3b3e ce2f 993d
00000340: c8ac 273e 96c7 303d 6112 f23d ebc4 b53d
00000350: f63a b2bc 9609 d13d 24fa 02bd ae93 903d
00000360: fb9b edbb b281 1cbc a67a 033e 186d a63c
00000370: 5518 353c f3f7 c83b f161 c4bd a5da 32bd
00000380: 64b8 183e 4097 673d 9a34 fe3d 67ee 813d
00000390: 2d9e 713c 667d 043d 26e1 efbc 5851 b0bd
000003a0: f820 2b3e 43c0 473e 3a11 6dbd 9c2c db3d
000003b0: b7cc 413d 867c 56bc dbaf f03d a563 323e
000003c0: ba21 763d 0d34 033e 6384 4a3d d072 86bc
000003d0: 7831 273b cce7 213d c8cb 333e 6313 c53d
000003e0: 13b4 f53d c155 94ba f47b 303e 5594 883d
000003f0: e1ea 78bd bf5f 543e af10 f03d deca 813d
