model/Adam with batch_size=2048;epoch=300_fixed.pt (torch_old, 210647 bytes, 10 tensors)

lstm.weight_ih_l0 f4 [256, 1]
0	0x3d692a56	0.05692514
1	0xbd8e8f4b	-0.06960925
2	0xbd90c5d3	-0.07068982
3	0x3d80ca34	0.06288567
4	0xbbbdc50e	-0.005791313
5	0x3d50e379	0.050998185
6	0x3ec9ec36	0.39438027
7	0x3d4263da	0.047458507
8	0xbca21a58	-0.019787952
9	0x3e8befae	0.273313
10	0x3e884c66	0.26620787
11	0xbe227c8c	-0.15867823
12	0xbcf3ec47	-0.029775752
13	0x3d6ff779	0.058585618
14	0x3bb69fc3	0.0055732443
15	0x3e7d4824	0.2473455
16	0x3de8bbf1	0.11363972
17	0x3d8a9090	0.06765854
18	0x3d48e6b8	0.049048156
19	0x3c945c21	0.018110337
20	0xbd69f47a	-0.057117917
21	0xbdc5b04c	-0.096527666
22	0x3df9b617	0.12192934
23	0x3e74c0ed	0.2390172
24	0x3f1e34e5	0.6179946
25	0xbe43893b	-0.19095318
26	0xbdd23a72	-0.10265054
27	0xbdd140c1	-0.10217429
28	0x3e82969d	0.25505534
29	0x3d41a27e	0.047274105
30	0xbe634d04	-0.22197348
31	0xbda551da	-0.080722526
32	0xbdd7e80b	-0.105423056
33	0x3d98a584	0.074534446
34	0xbdb61fc5	-0.08892778
35	0xbdb390b6	-0.08767836
36	0x3d3ce563	0.046117198
37	0xbdee0c03	-0.11623385
38	0x3d720d45	0.059094686
39	0xbdbdb075	-0.09262172
40	0x3d00dfb3	0.031463336
41	0xbde6b8f3	-0.11265745
42	0xbda7bd55	-0.08190409
43	0x3d6afeee	0.057372026
44	0x3d865568	0.06559259
45	0xbdb1c698	-0.08680457
46	0xbe5bf954	-0.2148183
47	0xbdaf5219	-0.08560581
48	0x3fd7646e	1.6827524
49	0xbdae1086	-0.08499245
50	0xbc2da2d5	-0.010597904
51	0xbd82fdcd	-0.06396065
52	0x3b55e463	0.003263735
53	0x3d2c520f	0.042070445
54	0xbe7179e7	-0.23581658
55	0x3c665bf9	0.014060014
56	0x3f672025	0.90283424
57	0xbdc3b826	-0.09556608
58	0x3d6c8316	0.0577422
59	0xbdd97fdf	-0.106200926
60	0x3e5b173d	0.21395583
61	0x3d5beaa9	0.053690586
62	0xbde4c83b	-0.111710034
63	0x3eed7491	0.46377996
64	0x3e0608e1	0.13089325
65	0x3e1fd87b	0.15609924
66	0x3e43dc08	0.19126904
67	0x3d2de86b	0.04245798
68	0xbd133638	-0.03594038
69	0x3d81538a	0.06314762
70	0x3d4f7a98	0.050654024
71	0x3f599f51	0.8500872
72	0x3d346f4e	0.04405146
73	0x3ea4e2da	0.32204324
74	0x3dc094cf	0.09403383
75	0xbc60a36f	-0.013710841
76	0x3e4523d3	0.19251947
77	0x3db90740	0.09034586
78	0x3e4c5e52	0.19957855
79	0x3e11d8d6	0.14242873
80	0x3d9d5b0f	0.07683384
81	0x3ce1791d	0.027523572
82	0x3df5c6ce	0.120008096
83	0x3d962ac0	0.07332373
84	0x3da3defc	0.08001515
85	0x3e0e90c0	0.13922405
86	0xbd9b916d	-0.07596097
87	0x3d90d1ba	0.07071252
88	0xbde5f337	-0.1122803
89	0xbe608b31	-0.21928097
90	0x3e170596	0.14748225
91	0x3e142c2b	0.14469974
92	0x3c45acff	0.012065171
93	0xbca9fd99	-0.020750808
94	0x3d83d744	0.06437543
95	0x3b81c01b	0.0039596683
96	0x3e4171aa	0.18891016
97	0x3dc05d98	0.093928516
98	0x3e5a8615	0.2134021
99	0xbb099dde	-0.0020998637
100	0x3cf3c012	0.029754672
101	0xbdb18915	-0.086687244
102	0x3ce6da0a	0.028180141
103	0xbe323d2d	-0.17406149
104	0x3d21d0d4	0.039505795
105	0x3c31e4ac	0.010857742
106	0x3e651850	0.22372556
107	0x3d74e160	0.059785247
108	0x3dcda3e8	0.10041028
109	0x3e6638da	0.22482625
110	0xbdbba078	-0.09161466
111	0x3dc42e3d	0.09579132
112	0xbc5ca94c	-0.013468098
113	0x3e19d511	0.15022685
114	0x3d3604f4	0.044438317
115	0x3de56d4e	0.11202489
116	0x3d8e50d1	0.06949008
117	0x3d179654	0.0370086
118	0xbd9e0cc3	-0.07717278
119	0x3df51fa2	0.11968924
120	0x3cff8f6b	0.031196317
121	0x3f481cc3	0.78168887
122	0x3df1739f	0.11789631
123	0x3effdfd6	0.4997546
124	0x3d1a9629	0.03774086
125	0x3e0e6a85	0.13907821
126	0xbf2fb213	-0.68631095
127	0x3dba8757	0.09107845
128	0x3d444be4	0.047923937
129	0x3d9f058e	0.07764731
130	0xbe38501c	-0.1799931
131	0x3ce56a1d	0.0280047
132	0xbf029ba0	-0.51018715
133	0x3e052c86	0.13005266
134	0xbd41908e	-0.047257
135	0x3edea80f	0.43487594
136	0xbdf6a185	-0.12042526
137	0xbe64e15e	-0.22351596
138	0xbe887c22	-0.26657206
139	0xbe4a74d0	-0.19771123
140	0x3e1ee523	0.15517096
141	0x3cdb17cd	0.026744748
142	0xbe576530	-0.21034694
143	0x3ec2e385	0.3806421
144	0x3d967527	0.07346564
145	0x3cb149e5	0.021641681
146	0x3e8094bf	0.25113484
147	0x3d7d5770	0.061850965
148	0x3d2b2996	0.041787706
149	0xbd1a469f	-0.037665006
150	0x3e1a45f2	0.15065745
151	0xbe4ad1d3	-0.19806604
152	0xbe20d717	-0.1570705
153	0x3ea2f69b	0.3182877
154	0x3e20e789	0.15713324
155	0xbe067422	-0.13130239
156	0x3e08ff82	0.13378718
157	0xbd0bf453	-0.034168553
158	0xbec38635	-0.3818833
159	0xbe2237eb	-0.15841644
160	0x3dc1e36b	0.09467205
161	0xbe3b16e5	-0.18270452
162	0xbe5509ed	-0.20804568
163	0xbe2db272	-0.16962603
164	0xbd67bbf2	-0.056575723
165	0xbe32055c	-0.17384857
166	0x3c5315f2	0.01288365
167	0xbed6c1aa	-0.4194463
168	0x3e92e868	0.28692937
169	0xbe5099da	-0.2037119
170	0x3d758c83	0.059948456
171	0x3e4401da	0.19141331
172	0x3cc3cd2f	0.02390155
173	0x3e3dc278	0.18531215
174	0x3e628cf9	0.2212409
175	0x3eae4a6a	0.34041148
176	0x3e7df2d2	0.2479966
177	0xbe910481	-0.2832375
178	0x3deef85b	0.11668464
179	0xbd141cee	-0.036160402
180	0x3e314715	0.17312272
181	0xbeb71862	-0.3576079
182	0xbf6151de	-0.88015544
183	0xbeae54d0	-0.34049082
184	0xbe1d6952	-0.15372208
185	0x3ed13534	0.40860903
186	0x3eb649ec	0.35603273
187	0x3e5c9fa3	0.21545272
188	0xbdce6a05	-0.10078815
189	0x3e04c8ad	0.12967177
190	0xbe930842	-0.28717238
191	0xbdcd9e6e	-0.10039984
192	0x3e005bec	0.12535065
193	0x3e5cdd87	0.21568881
194	0x3e60a441	0.21937658
195	0x3d43f374	0.047839597
196	0x3d38c089	0.04510549
197	0x3d73fbaa	0.059566177
198	0x3f1fe7b2	0.62462914
199	0xbe61fd32	-0.22069243
200	0x3c8f9e8b	0.017531654
201	0x3e8762fc	0.26442707
202	0xbd9afbd8	-0.07567567
203	0xbeb2ef1e	-0.34948057
204	0x3e9c6783	0.30547723
205	0x3d987a40	0.07445192
206	0x3d828f65	0.063750066
207	0x3d1d19b0	0.038354576
208	0x3dd5ed4e	0.10445653
209	0xbd8097d5	-0.0627896
210	0x3d6c8cae	0.05775135
211	0x3d6898d4	0.056786373
212	0x3c8efecf	0.017455487
213	0x3eebfe6e	0.46092552
214	0x3e1c760e	0.1527941
215	0x3ed37ef7	0.41307804
216	0x3ceff9e0	0.029293954
217	0xbe95da3f	-0.2926807
218	0x3dffbac1	0.12486792
219	0xbbcaffb9	-0.0061950353
220	0x3f0bf475	0.54669887
221	0x3ea820e8	0.32837605
222	0x3e9ae94a	0.3025611
223	0x3eac386f	0.33636805
224	0x3ea8a153	0.3293558
225	0x3d3e9f79	0.046538804
226	0x3e29085b	0.16507094
227	0x3e5f8fd8	0.21832216
228	0x3da8f08d	0.082490064
229	0xbd949a7f	-0.0725603
230	0xbe57a0fe	-0.21057507
231	0x3cb60ae6	0.022221994
232	0x3d5a52f8	0.05330178
233	0xbe1085b7	-0.14113508
234	0x3e41927c	0.18903536
235	0xbe19c6ec	-0.15017289
236	0x3d98c5e4	0.0745962
237	0x3e5411d6	0.20709929
238	0x3e335059	0.17511119
239	0x3e3cb23c	0.18427366
240	0x3ee959a7	0.45576212
241	0x3e88578d	0.26629296
242	0x3f152299	0.58255917
243	0x3d543d77	0.05181643
244	0x3d036f21	0.032088403
245	0x3da7e046	0.08197074
246	0x3b0ef247	0.002181189
247	0xbde4d974	-0.111742884
248	0x3e41a933	0.189122
249	0x3e6835aa	0.22676721
250	0xbdb81d5a	-0.08989973
251	0xbe0d5727	-0.13802777
252	0x3e91041c	0.28323448
253	0x3b92d734	0.0044812206
254	0x3de190d8	0.11013955
255	0x3e585f79	0.2113017

lstm.weight_hh_l0 f4 [256, 64]
0	0x3dafb085	0.0857859
1	0xbd17eb9d	-0.037089933
2	0xbe13f345	-0.14448269
3	0x3dd738ec	0.10508904
4	0xbe0ca009	-0.13732924
5	0x3e382e53	0.17986421
6	0xbad201c6	-0.0016022257
7	0x3e109902	0.14120868
8	0xbddbcded	-0.107326366
9	0xbccc6ba7	-0.024953676
10	0xbe1e20da	-0.1544222
11	0xbdf84704	-0.1212292
12	0x3c2701b6	0.010193279
13	0x3e486619	0.19570197
14	0xbe1ea519	-0.15492667
15	0x3e18e067	0.14929353
16	0x3e61e0ae	0.22058365
17	0xbd004d7e	-0.031323902
18	0x3dfd28bd	0.12361286
19	0x3e1dc86f	0.1540849
20	0x3ca2ac69	0.019857602
21	0xbbb67b41	-0.005568892
22	0x3d652a95	0.055948813
23	0x3db19d6a	0.086726025
24	0xbc93f309	-0.018060224
25	0x3eacf465	0.33780208
26	0x3dcd288a	0.10017498
27	0xbd2b0a39	-0.041757796
28	0xbc8b10e1	-0.016975822
29	0xbe205d69	-0.15660633
30	0xbe601db2	-0.21886328
31	0x3bc193de	0.0059075197
32	0xbcfcaa85	-0.030843029
33	0x3c511bc5	0.012762968
34	0x3d590ae4	0.0529889
35	0xbdc06a56	-0.09395282
36	0x3dafeb8c	0.08589849
37	0x3dd83bad	0.10558257
38	0xbd850a64	-0.064961225
39	0xbd9a4c3c	-0.07534072
40	0xbd392419	-0.04520044
41	0xbc70cd1d	-0.01469734
42	0x3e120fa0	0.14263773
43	0x3eada0ca	0.33911735
44	0x3e16ce83	0.14727215
45	0xbdcf87d7	-0.10133331
46	0x3aeb0052	0.0017929173
47	0x3d84d2b7	0.06485503
48	0x3b832fcb	0.0040035
49	0x3c9b5303	0.018960482
50	0x3e203310	0.15644479
51	0x3d5f3362	0.05449236
52	0x3d14b685	0.036306877
53	0xbe5e3c63	-0.21702723
54	0xbea10e1b	-0.31456074
55	0xbe87f017	-0.26550362
56	0x3dfc9aff	0.12334251
57	0xbdb170c7	-0.08664089
58	0x3e482edb	0.19549124
59	0xbd7ae9d2	-0.061258145
60	0x3d67af42	0.056563623
61	0x3d85f3b1	0.06540621
62	0xbcca9a4b	-0.024731776
63	0x3d55eafa	0.052226044
64	0x3d17abc4	0.037029043
65	0x3e29157a	0.16512099
66	0xbdddaad5	-0.10823599
67	0xbd426f27	-0.047469284
68	0x3da003d9	0.07813234
69	0xbd6d2771	-0.057898942
70	0xbde355aa	-0.111003235
71	0x3e283318	0.1642574
72	0xbb84ee0e	-0.0040566986
73	0xbe116594	-0.14198905
74	0xbd26d857	-0.04073366
75	0x3c984972	0.018589709
76	0x3e0231c5	0.12714298
77	0xbc9a9107	-0.018867983
78	0x3bb9858d	0.0056616724
79	0x3d724bbf	0.05915427
80	0x3cf0d7b4	0.02939973
81	0x3e0cb6e8	0.13741648
82	0xbd9607d4	-0.07325712
83	0x3db7a53b	0.08967062
84	0x3d83b4aa	0.06430943
85	0xbe262870	-0.16226363
86	0x3e0eb918	0.13937795
87	0x3dc7877d	0.09742639
88	0xbdd9a986	-0.10628037
89	0x3dd35196	0.10318296
90	0x3e27aa63	0.16373591
91	0xbcc1edb5	-0.023672918
92	0x3d63f32b	0.055651825
93	0xbd917926	-0.07103185
94	0x3da1c689	0.07899196
95	0xbd91ceb1	-0.071195014
96	0xba74723a	-0.00093248824
97	0xbda19eb2	-0.07891597
98	0xbe24c5ae	-0.16091034
99	0xbcd71b26	-0.026258063
100	0xbda7ddcd	-0.08196602
101	0x3de99cd6	0.11406867
102	0xbe4d0de0	-0.20024824
103	0x3d71b0ea	0.05900661
104	0xbd9bf0c9	-0.076142855
105	0x3dfc328e	0.1231433
106	0x3d583573	0.05278535
107	0x3e3e99f1	0.18613411
108	0x3c20ea2f	0.009821459
109	0xbc704abc	-0.014666256
110	0x3d44d6b9	0.048056338
111	0xbadcc3be	-0.0016843004
112	0xbb6e2ccb	-0.0036342617
113	0xbdc99cc1	-0.098443516
114	0x3c1c1dd2	0.009528594
115	0xbd448d0a	-0.047986068
116	0x3d979a07	0.07402425
117	0x3c9a185d	0.018810445
118	0xbe0a165a	-0.13485089
119	0xbd6bdb52	-0.057582207
120	0xbe143337	-0.14472662
121	0xbd579d51	-0.052640263
122	0x3cce3cab	0.025175413
123	0x3c418f9e	0.011814026
124	0x3c2859fe	0.010275362
125	0xbbf803f4	-0.0075688306
126	0xbdb318b6	-0.087449476
127	0xbe228250	-0.15870023
128	0x3e817160	0.2528181
129	0x3e59dce5	0.21275671
130	0xbdfb936c	-0.12283978
131	0x3f274b31	0.6534911
132	0x3e062a1d	0.13102002
133	0x3e60ff8f	0.21972488
134	0xbd0031ce	-0.031297497
135	0xbcaa19c6	-0.020764243
136	0x3decc4d7	0.11560982
137	0xbdac6ade	-0.08418821
138	0xbcb9a2f8	-0.022660717
139	0xbdc9a0c4	-0.09845117
140	0x3f04e1e5	0.5190719
141	0x3f0014cd	0.5003174
142	0xbd8f17fd	-0.06986997
143	0x3e5c6d2f	0.21526025
144	0x3e9c3101	0.30506137
145	0x3f3d4485	0.7393268
146	0x3e33160c	0.17488879
147	0x3f5100f2	0.8164207
148	0x3ec17633	0.3778549
149	0xbe95d215	-0.29261842
150	0xbe22d2f8	-0.1590079
151	0xbe742a4d	-0.23844261
152	0x3cea7858	0.028621837
153	0x3e08b893	0.1335166
154	0x3d84cc78	0.06484312
155	0xbecd724c	-0.40126264
156	0x3e52031e	0.20509002
157	0xbf038fb1	-0.5139113
158	0x3e8717a9	0.2638524
159	0xbdbea88f	-0.09309494
160	0xbb06c77d	-0.0020565682
161	0x3dc291e5	0.095004834
162	0x3e1b3727	0.15157758
163	0x3d893463	0.06699445
164	0xbe9506a7	-0.29106638
165	0xbe9cb16f	-0.3060412
166	0x3ca58230	0.02020368
167	0xbe3cd38d	-0.18440075
168	0xbe38c5e7	-0.18044244
169	0xbd14dae7	-0.036341574
170	0xbd9ed94b	-0.07756289
171	0xbdaac70f	-0.08338749
172	0x3e845687	0.25847265
173	0xbdced8a0	-0.10099912
174	0xbe692140	-0.2276659
175	0x3e1662c8	0.1468612
176	0x3dbe172f	0.09281766
177	0x3d248089	0.040161643
178	0xbc0be83c	-0.008539256
179	0x3f08f7fe	0.53503406
180	0x3d6cefcc	0.057845876
181	0x3d105784	0.03523971
182	0x3e714763	0.23562388
183	0xbe0ab5d8	-0.1354593
184	0x3d944992	0.07240595
185	0x3becc362	0.00722544
186	0xbe2c65a0	-0.16835642
187	0x3edda949	0.43293217
188	0xbdeed49d	-0.116616465
189	0xbe3bc330	-0.18336177
190	0xbdb1b443	-0.0867696
191	0xbb9a864a	-0.0047157155
192	0xbdcb535e	-0.099280104
193	0xbd689eb3	-0.056791972
194	0x3e143398	0.14472806
195	0xbcbcf38d	-0.023065353
196	0x3e1b4a16	0.1516498
197	0xbd06783f	-0.03282952
198	0xbcdc928d	-0.02692535
199	0x3e5bb620	0.21456194
200	0x3dfa168b	0.12211331
201	0x3be80ff3	0.0070819794
202	0xbdcd72e5	-0.1003168
203	0xbd8a05fc	-0.06739423
204	0x3cc3b0d7	0.023888035
205	0xbc60a9a7	-0.013712323
206	0x3d0fab7e	0.035075657
207	0x3dd3e293	0.1034595
208	0xbcf6aa90	-0.030110627
209	0x3cdc96ae	0.026927318
210	0xbd4e011b	-0.050294023
211	0x3dd1ebbc	0.10250041
212	0xbd535e92	-0.05160386
213	0x3c4590ea	0.012058476
214	0x3d8a8572	0.06763734
215	0xbc89d6ff	-0.016826151
216	0x3e042544	0.1290484
217	0x3de800be	0.113282666
218	0x3d56190c	0.05226998
219	0x3d60942e	0.054828815
220	0xbd92b786	-0.071639106
221	0xbe0e3ee3	-0.13891177
222	0x3d000c88	0.03126195
223	0xbd38416c	-0.044984266
224	0x3dcc6d3a	0.09981771
225	0xbd9c6448	-0.07636315
226	0x3e3f98e6	0.1871067
227	0xbd5c336b	-0.053759973
228	0xbd0a0035	-0.033691604
229	0x3e6d58aa	0.23178354
230	0xbd8f7516	-0.07004754
231	0xbce084ae	-0.027407017
232	0xbdd0d02c	-0.10195956
233	0x3e37c1dd	0.17945047
234	0xbda3cea0	-0.07998395
235	0x3dfb6020	0.12274194
236	0x3daea800	0.08528137
237	0x3d455d0f	0.04818445
238	0x3dca77c2	0.09886123
239	0x3dea5c23	0.11443355
240	0xbe242e34	-0.1603325
241	0x3dba7751	0.09104789
242	0x3dfc3d9f	0.12316441
243	0xbb792a1f	-0.003801949
244	0x3e29d279	0.16584195
245	0xbd853246	-0.065037295
246	0x3ccb9d6e	0.024855342
247	0xbd641812	-0.055687018
248	0xbc080225	-0.008301293
249	0x3da78c47	0.08181053
250	0x3d68e1c9	0.05685595
251	0x3d0b194d	0.033959676
252	0xbe11384d	-0.14181633
253	0xbd51f02b	-0.051254433
254	0x3dcd7776	0.10032551
255	0x3d6eba10	0.05828291

lstm.bias_ih_l0 f4 [256]
0	0x3e11bf03	0.14233021
1	0xbd6a18e6	-0.05715265
2	0x3b6b8755	0.0035938818
3	0xbe21ebb5	-0.15812571
4	0x3e07c1cd	0.13257523
5	0xbd94b2d5	-0.07260672
6	0xbcb72551	-0.022356661
7	0xbd78adc8	-0.060712606
8	0x3e077d50	0.13231397
9	0xbba1d9e2	-0.0049393037
10	0x3eca0fe8	0.3946526
11	0x3d2f2a81	0.042765144
12	0xbcacffe3	-0.02111811
13	0xbe18c710	-0.14919686
14	0x3dac283b	0.08406111
15	0x3ed1af36	0.40953988
16	0x3c8139a7	0.015774561
17	0x3d82ef2f	0.06393277
18	0xbe234c97	-0.15947185
19	0xbed8249f	-0.4221544
20	0xbc80f501	-0.015741827
21	0xbd9f764c	-0.07786235
22	0x3c6d6156	0.014488539
23	0xbdcf5eac	-0.10125479
24	0xbd398f94	-0.045302942
25	0x3e061a73	0.13096027
26	0x3d49dc28	0.049282223
27	0xbcd90ffa	-0.026496876
28	0xbe36081b	-0.1777653
29	0xbdfba8be	-0.122880444
30	0x3d26ffa4	0.04077114
31	0xbd5dc406	-0.05414202
32	0xbcf01d05	-0.029310713
33	0xbc28be4f	-0.010299279
34	0x3e3b5ea3	0.1829782
35	0x3dfafe9d	0.12255595
36	0xbe9a2815	-0.30108705
37	0xbcf0934b	-0.02936711
38	0xbcb2c24e	-0.021821167
39	0x3beecd19	0.007287633
40	0x3bffddef	0.007808439
41	0x3e2febe6	0.17179832
42	0x3e2cc6fa	0.16872779
43	0x3df7dba3	0.12102439
44	0x3d502197	0.050813284
45	0x3d96637c	0.07343194
46	0x3d7693c9	0.060199533
47	0x3e0761d8	0.13220918
48	0x3d9b407a	0.07580657
49	0x3e471237	0.19440542
50	0x3d115df8	0.035490006
51	0x3d87926e	0.06619726
52	0xbd188e92	-0.03724534
53	0x3c22ec48	0.009944029
54	0x3e6a5471	0.22883774
55	0x3e556581	0.20839502
56	0xbe83bed7	-0.25731537
57	0x3b37523d	0.0027972602
58	0x3e01d5f1	0.12679268
59	0xbc86e66e	-0.0164673
60	0x3d6f02b6	0.058352195
61	0xbd77a146	-0.060456537
62	0x3ea89528	0.32926297
63	0xbd6b4a08	-0.05744365
64	0x3db54229	0.0885051
65	0xbd584c6e	-0.052807264
66	0x3d55abfa	0.052165963
67	0xbce265cb	-0.02763643
68	0xbdaba179	-0.08380408
69	0xbd75f373	-0.060046624
70	0xbb62d266	-0.003461027
71	0xbc8b7d12	-0.017027412
72	0x3e126a73	0.1429842
73	0x3d01b037	0.031662192
74	0x3d14230e	0.036166243
75	0x3b5a1842	0.003327862
76	0x3d8b24e8	0.06794149
77	0xbcfb9e9f	-0.030715285
78	0x3db512fa	0.0884151
79	0x3da46254	0.08026567
80	0x3c8f9e44	0.017531522
81	0x3d89cf56	0.06728999
82	0xbde4be3b	-0.11169096
83	0x3d901257	0.07034748
84	0x3d505c05	0.050869007
85	0x3de6e811	0.11274732
86	0x3d09163c	0.03346847
87	0x3dacb1ed	0.08432374
88	0xbd6cbe0c	-0.05779843
89	0xbb9e6fc2	-0.0048351
90	0x3e358340	0.17725849
91	0xbe079f20	-0.13244295
92	0xb727b6c8	-9.996533e-06
93	0x3db25aff	0.087087624
94	0xbd52faa9	-0.05150858
95	0x3cb68999	0.022282409
96	0xbcbf5aff	-0.02335882
97	0xbdad93bb	-0.08475443
98	0xbd5ae44d	-0.05344038
99	0x3b9e1c30	0.0048251376
100	0xbe2074a5	-0.15669496
101	0x3c354fe1	0.011066408
102	0x3e051a18	0.12998235
103	0x3e1d975a	0.15389767
104	0xbe4abfe0	-0.19799757
105	0x3ddb6a1b	0.107135974
106	0x3d1984e9	0.03748027
107	0x3b1d34ca	0.0023987764
108	0x3d015f55	0.031585056
109	0x3daf20e8	0.08551198
110	0x3bd76dbb	0.00657436
111	0x3d86567f	0.065594666
112	0xbc99bcf2	-0.018766854
113	0xbe0cfa9b	-0.13767473
114	0xbdd49b10	-0.10381138
115	0xbaa8bccc	-0.0012873649
116	0x3d45e2a1	0.048311833
117	0x3dd1203f	0.102112286
118	0x3d32ff99	0.04370079
119	0x3e3bceb2	0.18340567
120	0xbd904dd8	-0.070460975
121	0xbd1fe0f1	-0.03903288
122	0x3ce03e09	0.02737333
123	0xbd1620fc	-0.03665255
124	0x3db97c25	0.09056882
125	0xbd94f660	-0.07273555
126	0xbd839bff	-0.06426238
127	0xbd952f12	-0.072843686
128	0x3e583ad4	0.21116191
129	0x3d106afc	0.03525828
130	0xbd43e1b5	-0.047822673
131	0xbd799700	-0.06093502
132	0x3c11ebea	0.008906344
133	0x3e10ecf9	0.14152898
134	0xbaf14e25	-0.001841013
135	0xbe35e05c	-0.17761368
136	0xbdb1b108	-0.08676344
137	0x3e296197	0.16541134
138	0xbe8dfe92	-0.27733284
139	0xbc01e678	-0.007928483
140	0xbcef8f5c	-0.029243164
141	0x3dbc20d2	0.091859475
142	0xbd96d30c	-0.07364473
143	0x3e143371	0.14472748
144	0x3e7a7c94	0.24461585
145	0xbdca6a8a	-0.09883602
146	0xbd61528d	-0.055010367
147	0xbcf4eeee	-0.029899087
148	0xbdbae8ac	-0.0912641
149	0xbd17b14d	-0.03703432
150	0x3e1bf94c	0.15231818
151	0x3bbc472f	0.0057457904
152	0x3df510b6	0.11966078
153	0x3e53aeed	0.20672198
154	0xbd4c7116	-0.049912535
155	0xbd59999f	-0.05312502
156	0xbdf0d9c4	-0.117602855
157	0x3da5fe69	0.081051655
158	0x398e96f6	0.00027196825
159	0xbe24ec29	-0.16105713
160	0xbd7e5bff	-0.062099453
161	0x3ce0dbab	0.027448496
162	0x3d17fd27	0.03710666
163	0x3d6bcfa8	0.057571083
164	0x3dde455a	0.108530715
165	0x3ba96c56	0.0051703854
166	0xbdd9e508	-0.10639387
167	0xbe3d41ad	-0.18482085
168	0xbda7d440	-0.0819478
169	0x3de2f98c	0.110827535
170	0x3e4bb882	0.19894603
171	0x3eb88ef1	0.36046556
172	0x3cffb664	0.0312149
173	0x3d8f8163	0.070071004
174	0xbd4496b4	-0.047995284
175	0x3dde93c7	0.1086803
176	0xbbfc9ad7	-0.007708888
177	0x3e330578	0.17482555
178	0x3d266020	0.040619016
179	0x3de2429b	0.1104786
180	0xbdd321d7	-0.10309189
181	0xbe8bb43c	-0.27285945
182	0x3e101ac5	0.14072712
183	0xbeb47168	-0.35242772
184	0x3dbc3b33	0.09190979
185	0xbe42fe5f	-0.19042347
186	0x3dc67c77	0.096917085
187	0xbdd250cf	-0.10269319
188	0x3e63210f	0.2218058
189	0x3d56022a	0.052248158
190	0xbdc0406b	-0.09387287
191	0xbcead9bd	-0.028668279
192	0x3d350374	0.044192746
193	0x3b8b8170	0.0042573735
194	0x3b5f2bd0	0.0034053214
195	0x3b9099b6	0.004412855
196	0x3c0bddc6	0.008536762
197	0xbe14cab0	-0.14530444
198	0xbe3a2ea8	-0.1818186
199	0x3e7c6767	0.2464882
200	0x3e14c162	0.14526895
201	0x3d8c64ae	0.068551406
202	0x3d8fbd43	0.07018521
203	0x3e65f33f	0.22456072
204	0x3e274b1f	0.1633725
205	0x3da862b6	0.082219526
206	0xbda875cf	-0.08225595
207	0x3e1628b3	0.14663963
208	0x3cb56894	0.022144593
209	0x3e071963	0.13193278
210	0xbdb739d5	-0.089465775
211	0xbcc588a9	-0.024113016
212	0x3da90a71	0.08253945
213	0xbdec1cf7	-0.11528962
214	0x3e42a1bd	0.19007011
215	0xbcc641c8	-0.024201289
216	0xbc7c9c27	-0.015418089
217	0x3e719c9a	0.23594895
218	0x3c35f87f	0.011106609
219	0x3c89c3f1	0.016817065
220	0xbe1b2ac2	-0.1515303
221	0xbe096e1a	-0.13420907
222	0x3ec322a2	0.3811236
223	0x3bf70c7a	0.007539329
224	0x3ccbc4eb	0.024874171
225	0xbd5cecc6	-0.053936742
226	0x3db4ea87	0.08833795
227	0xbcb01071	-0.021492215
228	0xbe478aa3	-0.1948648
229	0x3e1e3e12	0.15453365
230	0x3cbb1a2a	0.022839624
231	0x3e488b4b	0.19584386
232	0xbe21ec07	-0.15812694
233	0xbcbb7f53	-0.022887861
234	0xbc762164	-0.015022609
235	0x3da62182	0.0811186
236	0xbc8e4466	-0.0173666
237	0x3e19cf1d	0.15020414
238	0x3e2f2616	0.17104372
239	0x3cdd9097	0.027046485
240	0x3e2edcb2	0.17076376
241	0x3db2a1da	0.08722277
242	0xbd473334	-0.048632815
243	0x3df2b27a	0.11850448
244	0x3d412aa6	0.047159813
245	0x3c4e01d1	0.012573675
246	0x3ecff0ff	0.40613553
247	0x3ae49646	0.0017439805
248	0xbd4f4a40	-0.05060792
249	0x3e83bf24	0.25731766
250	0x3e04bfe8	0.12963831
251	0x3e05cc1a	0.1306614
252	0xbb3f0c3e	-0.0029151584
253	0xbe0001b6	-0.12500653
254	0x3e95dcfa	0.29270154
255	0xbdf37b28	-0.118887246

lstm.bias_hh_l0 f4 [256]
0	0x3df09f43	0.11749127
1	0xbd53144c	-0.05153303
2	0xbe43b417	-0.19111668
3	0xbe2d0a27	-0.16898404
4	0xbb8b377a	-0.0042485567
5	0x3d3bba64	0.045832053
6	0xbd036dd5	-0.032087166
7	0x3dc2446b	0.09485706
8	0xbbd78905	-0.0065776133
9	0x3d5d25fe	0.05399131
10	0x3ed1168a	0.40837508
11	0x3c758d27	0.014987267
12	0x3dbd3b64	0.092398435
13	0xbda73958	-0.08165234
14	0xbdf577bd	-0.11985729
15	0x3ea09094	0.31360304
16	0x3c6d410f	0.014480843
17	0xbd48565a	-0.048910476
18	0xbd268b50	-0.040660203
19	0xbed7af7d	-0.42126074
20	0xbd8ee119	-0.06976528
21	0xbd4f625f	-0.050630923
22	0x3e30c692	0.17263249
23	0xbd713e62	-0.058897384
24	0xbe10d131	-0.141423
25	0x3e7b67f3	0.24551372
26	0x3db4b197	0.08822935
27	0x3cf75c6f	0.030195443
28	0xbdead18b	-0.114657484
29	0xbe2d251a	-0.16908684
30	0x3dc7592b	0.09733804
31	0x3db43ec5	0.08801035
32	0x3db37a61	0.08763576
33	0xbe0b37ab	-0.13595454
34	0x3cee19c9	0.02906503
35	0x3d92dcf5	0.071710505
36	0xbe7c7a02	-0.24655917
37	0x3d022957	0.031777706
38	0x3dd68153	0.104738854
39	0x3dc8b8f1	0.098009
40	0xbccdfe27	-0.025145603
41	0x3e5a4d24	0.2131849
42	0x3e381bbe	0.17979333
43	0x3d2dc87d	0.04242753
44	0xbe07a65d	-0.13247056
45	0x3e019c6b	0.12657325
46	0x3e20b99f	0.15695809
47	0x3e0e0bfa	0.13871756
48	0x3c8963cb	0.016771218
49	0x3daa630f	0.08319675
50	0x3dab670c	0.08369264
51	0x3b4e7d49	0.0031507781
52	0xbda679c8	-0.08128697
53	0x3c9f6425	0.019456932
54	0x3e868553	0.26273593
55	0x3d87d176	0.066317484
56	0xbe3ed511	-0.18635966
57	0x3d858191	0.065188535
58	0x3dcef961	0.10106159
59	0xbcb72d62	-0.022360507
60	0x3e3d7c2a	0.18504396
61	0x3e182298	0.14856946
62	0x3e285001	0.16436769
63	0xbbfe75e4	-0.0077655185
64	0x3ded0ac3	0.11574318
65	0xbd1ed8d4	-0.038781002
66	0xbdf11d10	-0.11773121
67	0x3e0753d8	0.13215578
68	0xbe14e059	-0.14538707
69	0x3d72b79d	0.05925714
70	0x3d56f8ee	0.05248349
71	0xbe2664fb	-0.16249458
72	0x3e312064	0.17297512
73	0xbba8f301	-0.0051559214
74	0x3d818b19	0.06325359
75	0x3cb3dcae	0.021955814
76	0x3d96957e	0.07352732
77	0xbba42b04	-0.0050100107
78	0x3c4bd342	0.0124405045
79	0x3e017bec	0.12644929
80	0x3e542fc4	0.20721346
81	0x3db1e24e	0.08685742
82	0xbddf3083	-0.10897925
83	0xbd8f4e11	-0.06997312
84	0x3e35a661	0.1773925
85	0x3de02a84	0.10945609
86	0x3d329c38	0.043606013
87	0xbc2fedd7	-0.010737858
88	0xbdf63b85	-0.12023071
89	0x3cd00b9d	0.025396163
90	0x3d82ccbb	0.063867055
91	0xbb31a793	-0.0027107939
92	0xbda2a568	-0.07941705
93	0x3d35782c	0.044304058
94	0xbd352c35	-0.044231612
95	0x3d16811d	0.036744226
96	0xbdbe8a9e	-0.09303783
97	0xbc24248b	-0.010018478
98	0x3d9d937b	0.07694145
99	0xbbc12dd0	-0.005895354
100	0xbdb0604e	-0.08612119
101	0xbd6f77b7	-0.05846378
102	0x3d6e9fa4	0.058257714
103	0x3de6dcf9	0.11272616
104	0xbe388150	-0.18018079
105	0x3ddf2d73	0.108973406
106	0x3cd667a5	0.026172468
107	0x3e1caa0b	0.15299241
108	0x3e2d006a	0.16894689
109	0xbd9372b0	-0.07199609
110	0xbb94da7d	-0.0045426474
111	0x3b06b6e4	0.0020555789
112	0x3d7e7e05	0.0621319
113	0xbdf87150	-0.12130988
114	0xbd28a133	-0.041169357
115	0x3c900f28	0.017585352
116	0xbcaf38d9	-0.021389412
117	0x3e4d763a	0.20064631
118	0xbe1026e2	-0.14077333
119	0x3e47faf8	0.1952933
120	0xbdad157a	-0.08451362
121	0xbe6fb9e7	-0.2341076
122	0x3e46a038	0.19397056
123	0xbd93141b	-0.07181569
124	0xbdb7fd03	-0.08983805
125	0x3c28d397	0.010304353
126	0x3d402f7e	0.046920292
127	0xbdc00b8e	-0.09377204
128	0x3def502a	0.11685212
129	0xbd01cb81	-0.031688217
130	0xbcacdb17	-0.021100564
131	0x3ba7d70a	0.00512207
132	0x3d703784	0.058646694
133	0x3d3b2a41	0.045694593
134	0xbd9bcff2	-0.07608022
135	0xbdb1e1f4	-0.08685675
136	0x3da29f44	0.07940534
137	0x3e3ce7bf	0.18447779
138	0xbeb871ae	-0.3602423
139	0x3d9d80b7	0.07690566
140	0x3c79fa23	0.015257391
141	0xbdb592f8	-0.08865923
142	0xbdaa8e12	-0.08327879
143	0x3e619a81	0.22031595
144	0x3e645eb4	0.22301751
145	0xbc87b9b1	-0.016568037
146	0x3e18f298	0.14936292
147	0xbdd7f8ec	-0.10545525
148	0xbda4dc42	-0.08049823
149	0x3db13594	0.08652797
150	0x3dd1b73f	0.102400295
151	0x3dcba593	0.0994369
152	0x3da035d8	0.0782277
153	0x3e88502d	0.2662367
154	0x3d20fb06	0.039301895
155	0xbac72ab4	-0.0015195222
156	0xbe09e46c	-0.13466042
157	0x3df0596d	0.117358066
158	0x3d80f1a2	0.06296088
159	0xbe7adb2d	-0.24497671
160	0xbdab921f	-0.0837748
161	0x3d935df3	0.07195654
162	0x3b9a9204	0.0047171135
163	0xbc99dab5	-0.018781045
164	0x3e61df70	0.22057891
165	0x3e41b3e8	0.18916285
166	0xbdbfd53c	-0.09366843
167	0xbe6b60b1	-0.22986104
168	0x3d011ddf	0.031522628
169	0x3c0b6c18	0.008509658
170	0x3e4945c0	0.19655514
171	0x3e9fcbc9	0.31210163
172	0xbdb382c3	-0.08765175
173	0xbe1c02b3	-0.15235405
174	0xbe12b375	-0.1432627
175	0x3dc44d4d	0.095850565
176	0xbaf7cfd9	-0.0018906548
177	0xbcc7f483	-0.024408584
178	0xbe16f856	-0.1474317
179	0xbdbd6437	-0.0924763
180	0xbe036e01	-0.12834932
181	0xbe9596b6	-0.29216546
182	0x3e48570d	0.19564457
183	0xbebc1abd	-0.3673915
184	0x3daae85b	0.083450995
185	0xbe3e72e7	-0.1859852
186	0x3dd6f4ef	0.10495936
187	0xbdca220b	-0.098697744
188	0x3e301e69	0.171991
189	0x3cadfa3a	0.021237481
190	0x3d0f58cc	0.034996793
191	0x3d26079b	0.040534597
192	0xbd870cd0	-0.06594241
193	0x3e07a3c3	0.13246064
194	0x3e1cf596	0.15328059
195	0x3e051a63	0.12998347
196	0xbc818310	-0.015809566
197	0xbc867098	-0.01641111
198	0x3cdf970f	0.02729371
199	0x3e48bd0d	0.19603367
200	0x3d7331f9	0.05937383
201	0x3dafe03e	0.08587693
202	0x3d977aa3	0.07396438
203	0x3e5ed509	0.21760954
204	0x3e738ab5	0.23783381
205	0xbc6049d9	-0.013689482
206	0x3d6a83c3	0.057254564
207	0x3e477d6b	0.19481437
208	0xbd9dc29b	-0.07703134
209	0x3be8f08e	0.0071087545
210	0x3d058832	0.03260059
211	0xbdf59a1f	-0.11992287
212	0xbcc15f5d	-0.023605043
213	0x3d743533	0.059621047
214	0x3e48b85f	0.19601582
215	0xbe0ae061	-0.13562156
216	0xbd1302a7	-0.0358912
217	0x3e794196	0.24341425
218	0x3e121432	0.14265516
219	0x3e241c61	0.1602645
220	0xbe290698	-0.16506422
221	0xbde7207f	-0.11285495
222	0x3eaee4ce	0.3415894
223	0xbd66288d	-0.056191016
224	0xbc7e26fb	-0.015512223
225	0xbd56ecfe	-0.052472107
226	0xbba7cb62	-0.0051206807
227	0x3d27e313	0.04098804
228	0xbd83fdf4	-0.06444922
229	0x3e2a15d4	0.1660989
230	0x3df8d349	0.121496744
231	0x3e0850c4	0.1331206
232	0xbc04c26a	-0.008102993
233	0x3d738e77	0.059462037
234	0xbd28c1be	-0.041200392
235	0x3daeba4a	0.085316256
236	0x3ce9c312	0.0285354
237	0x3d13a119	0.036042307
238	0x3e73459a	0.2375702
239	0x3c96242b	0.018327793
240	0x3e07182a	0.13192812
241	0x3daefb98	0.085440814
242	0x3dda2fb8	0.10653633
243	0x3d9a0a0e	0.07521449
244	0xbd8abd4e	-0.06774388
245	0x3db22026	0.08697538
246	0x3eb4c547	0.3530676
247	0x3d13a5b6	0.036046706
248	0x3dab66ea	0.08369239
249	0x3e9e2e07	0.3089449
250	0x3e22e665	0.15908201
251	0x3e446a19	0.19181098
252	0xbbc4934b	-0.005999004
253	0x3c3add77	0.01140534
254	0x3e2ddde9	0.16979183
255	0xbd9b7f76	-0.075926706

lstm.weight_ih_l1 f4 [256, 64]
0	0x3d0771d0	0.033067524
1	0x3e5607fe	0.20901486
2	0x3d59fa91	0.053217474
3	0x3e307d4f	0.17235301
4	0x3d0c5da5	0.034268994
5	0x3d30d08d	0.04316764
6	0xbe418e51	-0.18901946
7	0x3bb45500	0.005503297
8	0xbc411965	-0.01178584
9	0xbd8ea374	-0.0696477
10	0xbd8c3546	-0.068460986
11	0x3d322268	0.043489844
12	0x3d4bbdd9	0.0497416
13	0x3dde9b31	0.10869444
14	0xbdfa5aef	-0.122243755
15	0x3db77464	0.089577466
16	0x3c35af1d	0.011089114
17	0x3e1ea4af	0.1549251
18	0x3dcf93bc	0.101356
19	0x3da8c70e	0.08241092
20	0x3e073ad5	0.13206036
21	0xbe18470b	-0.1487085
22	0x3c73b5e2	0.014874907
23	0xbdbdc173	-0.09265413
24	0xbbecd4df	-0.0072275246
25	0x3e27729b	0.16352312
26	0x3d8b6e4d	0.068081476
27	0xbe666f69	-0.22503437
28	0xbccd0486	-0.025026571
29	0xbe08e029	-0.1336676
30	0x3d70c90b	0.05878548
31	0xbe23b157	-0.15985619
32	0x3e2af64a	0.16695514
33	0x3cdfc7e9	0.027317004
34	0x3e2597ec	0.16171235
35	0xbe2c6229	-0.1683432
36	0x3e1ce599	0.1532196
37	0xbe3120bf	-0.17297648
38	0xbe9bfd81	-0.30466846
39	0xbe2088b4	-0.15677148
40	0xbe38e115	-0.18054612
41	0x3e8c420d	0.27394143
42	0xbc9232a0	-0.017846406
43	0x3e394925	0.18094309
44	0x3dbcdb92	0.09221567
45	0xbd73b516	-0.05949887
46	0xbd97fa2a	-0.07420762
47	0x3c97d6c6	0.01853503
48	0xbd8c6df5	-0.0685691
49	0x3d8a3046	0.06747489
50	0xbc68a423	-0.0141992895
51	0x3ecb7c84	0.39743435
52	0x3dd5444d	0.10413418
53	0xbe20264b	-0.15639608
54	0xbbbe9fa4	-0.0058173705
55	0xbe772f4c	-0.24139136
56	0x3daccf8b	0.08438023
57	0x3db91760	0.090376616
58	0x3e630b0e	0.22172186
59	0x3d3c4b0e	0.045970015
60	0xbe0d6fd7	-0.13812195
61	0xbd5e4123	-0.054261338
62	0x3e88e535	0.2673737
63	0x3d2cb9e1	0.042169455
64	0x3dc03b9a	0.09386368
65	0x3e28a089	0.1646749
66	0xbe0b08b7	-0.13577543
67	0x3e1a4df0	0.15068793
68	0xbcd564e5	-0.026049087
69	0xbcceaa4f	-0.025227694
70	0xbe20a0cd	-0.1568634
71	0xbcd4bb88	-0.025968328
72	0x3cc91cf1	0.024549933
73	0xbe84300b	-0.25817904
74	0x3e04fd3c	0.12987226
75	0xbdb0a7df	-0.08625769
76	0x3de7d984	0.11320785
77	0x3e65ae1f	0.22429703
78	0x3d853211	0.0650369
79	0xbde94b85	-0.11391357
80	0x3dd10e96	0.1020786
81	0x3e6bef69	0.23040546
82	0xbd631c6e	-0.055447035
83	0x3d16efeb	0.036849897
84	0x3e8a0a10	0.26960802
85	0xbe796dd3	-0.24358301
86	0xbdf3d3c2	-0.11905624
87	0xbdea1897	-0.114304714
88	0xbc855303	-0.016274935
89	0xbe340e16	-0.17583498
90	0xbd21344f	-0.039356526
91	0xbe30c10a	-0.17261139
92	0x3e0ac954	0.13553363
93	0xbe8ba8d0	-0.2727723
94	0x3d819cfe	0.06328772
95	0xbdd4f910	-0.103990674
96	0x3b281f06	0.0025653257
97	0x3a5298d3	0.0008033637
98	0x3d8b3f0d	0.06799135
99	0xbd3578a1	-0.044304494
100	0xbdfaf8e6	-0.12254505
101	0xbea42516	-0.32059544
102	0xbd63f687	-0.05565503
103	0x3cc2359d	0.023707205
104	0x3dc64617	0.09681337
105	0x3e3e1c1f	0.18565415
106	0x3d181dd1	0.03713781
107	0x3dc08180	0.093997
108	0x3e7c86b7	0.24660765
109	0xbc89ca23	-0.01682002
110	0xbdcf8a16	-0.1013376
111	0x3da25062	0.07925488
112	0x3ad32bdc	0.0016111094
113	0x3c6642e1	0.014054031
114	0x3d0495fd	0.032369602
115	0x3e9db9fa	0.3080595
116	0x3e868243	0.26271257
117	0xbac861e5	-0.0015287964
118	0x3dd22ad8	0.10262078
119	0x3e13c2a1	0.14429714
120	0xbdb9156a	-0.090372875
121	0xbc397f00	-0.011321783
122	0xbde70ec5	-0.11282114
123	0x3ddaa847	0.106766276
124	0x3b9a2456	0.0047040386
125	0xbd640713	-0.05567081
126	0x3e9a260b	0.3010715
127	0xbde6c7df	-0.11268591
128	0xbd05ab8a	-0.032634296
129	0xbd64ab83	-0.05582763
130	0x3dd2d72e	0.102949485
131	0x3d5d7068	0.054062277
132	0x3e1e8727	0.15481244
133	0x3d4bedc9	0.049787316
134	0x3e0390b4	0.12848169
135	0xbda3e2f9	-0.08002276
136	0xbc438582	-0.011933686
137	0x3bba134f	0.0056785713
138	0xbcd8161b	-0.026377728
139	0x3d85c24d	0.065312006
140	0xbe50fd28	-0.20409071
141	0x3da884b0	0.08228433
142	0x3d8b1517	0.06791132
143	0xbde0de3e	-0.10979889
144	0xbde7ee1b	-0.11324712
145	0x3d14330a	0.036181487
146	0x3d7e2275	0.06204458
147	0xbe4692fa	-0.19392005
148	0x3d965708	0.07340819
149	0x3d7c4519	0.061589334
150	0xbdc5da4e	-0.09660779
151	0x3c400b6c	0.011721473
152	0x3c0bdb90	0.0085362345
153	0x3e1bfcb9	0.15233125
154	0x3d97c55f	0.074106924
155	0xbdd106b0	-0.10206354
156	0x3b737877	0.003715066
157	0x3c1c4003	0.009536746
158	0x3e0025d3	0.12514429
159	0x3c51cedf	0.01280567
160	0x3c11536e	0.008869989
161	0x3e203cab	0.15648143
162	0x3dc65bbc	0.09685466
163	0xbd074f26	-0.033034466
164	0x3e894582	0.26810843
165	0xbcab81cc	-0.020935915
166	0xbe3bf315	-0.18354447
167	0xbdf5a45c	-0.1199424
168	0xbe1b90e8	-0.15191996
169	0xbc984c0e	-0.018590953
170	0xbd236902	-0.039895065
171	0x3dd0f5a4	0.10203102
172	0x3d493b1a	0.04912863
173	0xbdfaf041	-0.12252856
174	0xbe2cfdcb	-0.1689369
175	0xbd64968d	-0.05580764
176	0xbdebe682	-0.11518575
177	0x3c4a0a19	0.012331509
178	0xbdad4bde	-0.08461736
179	0x3e686c20	0.22697496
180	0xbd6b88df	-0.057503577
181	0xbd974a7a	-0.07387252
182	0x3c4f0523	0.012635502
183	0xbe0583a5	-0.130385
184	0x3de18535	0.11011735
185	0xbd7d471e	-0.0618354
186	0x3e13f1d7	0.14447723
187	0xbde00738	-0.10938877
188	0xbd509e67	-0.050932314
189	0x3cabc895	0.020969668
190	0x3c8422e1	0.016129913
191	0xba5235ec	-0.0008018899
192	0x3d9bbf09	0.076047964
193	0x3ddaf0c5	0.106904544
194	0xbe7cae62	-0.24675897
195	0x3d9c1ec2	0.07623054
196	0xbf0ea479	-0.55719715
197	0x3e40f5c7	0.18843757
198	0xbeae2e22	-0.34019572
199	0x3ea7d7a3	0.32781705
200	0xbd98a3d4	-0.07453123
201	0xbede14b8	-0.43375182
202	0xbd322bba	-0.043498732
203	0xbed9d43a	-0.4254473
204	0x3ce05406	0.027383815
205	0xbda47903	-0.08030894
206	0xbd9b747a	-0.075905755
207	0x3bef99aa	0.0073120194
208	0x3d58b383	0.05290557
209	0x3ca44c09	0.020055788
210	0x3e650c32	0.22367933
211	0xbe66842a	-0.22511354
212	0x3e468327	0.19385968
213	0xbd38414f	-0.044984158
214	0x3d070162	0.032960303
215	0xbf48d16c	-0.7844455
216	0xbe16e255	-0.14734776
217	0x3d8b0c0f	0.06789409
218	0xbe1ffe15	-0.15624268
219	0xbe2955ff	-0.16536711
220	0x3d7e3eca	0.0620716
221	0xbe1f5bce	-0.15562364
222	0xbe9be1c5	-0.30445686
223	0xbe8e1408	-0.27749658
224	0x3d150ce4	0.036389247
225	0xbeb8d56d	-0.3610033
226	0xbe5c2be1	-0.21501113
227	0xbebfab83	-0.3743554
228	0xbe33c1ee	-0.17554447
229	0x3e5339e7	0.20627557
230	0xbb942926	-0.004521507
231	0xbeba639c	-0.3640412
232	0x3e3af770	0.18258452
233	0xbf0d8879	-0.55286366
234	0x3e414843	0.18875222
235	0x3e33e7a9	0.1756884
236	0xbd79de43	-0.06100298
237	0x3da982e3	0.08276918
238	0x3eb991e2	0.36244112
239	0x3e356ee8	0.17718089
240	0x3e9046e0	0.28179073
241	0xbebc5da2	-0.36790186
242	0x3eab6e52	0.33482605
243	0x3ba6520e	0.0050756996
244	0x3e13dcd8	0.14439714
245	0xbd44a26b	-0.048006456
246	0xbf829019	-1.0200225
247	0xbdb8ddeb	-0.090267025
248	0xbe16b488	-0.14717305
249	0x3f4f5237	0.80984825
250	0x3d1cdd21	0.038296822
251	0x3ee1ae71	0.440784
252	0xbe6f6b0f	-0.23380683
253	0x3e1b7979	0.15183057
254	0xbecad8c6	-0.3961851
255	0x3e7dc873	0.24783497

lstm.weight_hh_l1 f4 [256, 64]
0	0x3e75fcd6	0.2402223
1	0x3d2fe4d1	0.042942826
2	0xbc7b3dae	-0.01533453
3	0xbc94976f	-0.018138615
4	0x3e1219bb	0.14267628
5	0x3e2b4db0	0.16728854
6	0xbdd0dfde	-0.10198949
7	0xbe88a29b	-0.26686558
8	0xbe0e370f	-0.1388819
9	0x3e084736	0.13308415
10	0x3e62bacc	0.2214157
11	0x3d8aa09b	0.06768914
12	0x3cf274e4	0.029596753
13	0x3ca47526	0.020075392
14	0xbe6c94e8	-0.23103678
15	0xbe6e2e0a	-0.2325975
16	0xbe5dbc05	-0.21653755
17	0xbe1e1abe	-0.15439889
18	0x3dff3d51	0.12462867
19	0x3dd04d93	0.10171046
20	0xbed5d420	-0.417634
21	0xbe1b76c3	-0.15182023
22	0xbe8a9a65	-0.2707092
23	0x3d5e3fbb	0.054259997
24	0xbe167e43	-0.14696603
25	0xbc80de2a	-0.015730936
26	0xbda3cda1	-0.07998205
27	0x3e49440d	0.19654866
28	0x3dfaf30f	0.12253391
29	0xbdf041e2	-0.11731316
30	0x3ddc7f13	0.10766425
31	0xbe20eebc	-0.1571607
32	0xbe2be9ac	-0.16788357
33	0x3db20f26	0.086942956
34	0x3e0f5aae	0.13999435
35	0xbcdc65ea	-0.026904065
36	0xbdc2ff60	-0.09521365
37	0xbd369a32	-0.044580646
38	0xbd1b3f6f	-0.037902292
39	0x3d609213	0.054826807
40	0x3e1d7d0e	0.15379736
41	0x3c38679c	0.011255171
42	0xbe89bbc8	-0.26901078
43	0xbe86574b	-0.26238474
44	0xbe5de26e	-0.21668407
45	0x3d68bfcc	0.056823537
46	0xbb683d5d	-0.0035436966
47	0xbe36db6c	-0.1785714
48	0x3ddc824d	0.107670404
49	0x3e1f1daf	0.15538667
50	0x3e2e15f8	0.17000568
51	0x3e369d0a	0.17833343
52	0x3d160e15	0.036634523
53	0x3c2f322a	0.010693112
54	0xbdf86123	-0.12127902
55	0xbdfeb2c7	-0.12436443
56	0xbd91ccf6	-0.07119171
57	0xbc9993b2	-0.018747184
58	0x3d0748c7	0.03302839
59	0x3dbaf33a	0.09128423
60	0xbe238bfd	-0.1597137
61	0xbcf17a52	-0.029477272
62	0xbe027469	-0.1273972
63	0xbda5d1af	-0.080966346
64	0x3e38947a	0.1802539
65	0x3d86900f	0.06570446
66	0x3d1203b3	0.03564806
67	0xbd333774	-0.043754056
68	0xbd513fb8	-0.051086158
69	0x3e790d9c	0.24321598
70	0x3db610c6	0.08889918
71	0xbe983871	-0.2973056
72	0xbe160d91	-0.14653613
73	0x3e327a9b	0.17429583
74	0x3dc6730d	0.09689913
75	0x3d9eb05e	0.07748483
76	0x3eab7ad8	0.3349216
77	0x3e58e1da	0.21179906
78	0xbea7b206	-0.3275301
79	0xbdd2cb36	-0.10292666
80	0xbdbe7a6e	-0.09300695
81	0xbe143122	-0.14471868
82	0x3e0f5d7a	0.14000502
83	0x3d5ecdb1	0.05439538
84	0xbdabddd1	-0.083919175
85	0xbda07006	-0.07833867
86	0xbe61ebc7	-0.22062598
87	0x3e0bdf64	0.13659436
88	0xbe8769b3	-0.2644783
89	0xbe0873b2	-0.13325384
90	0xbda0d86c	-0.07853779
91	0x3e5a4cc9	0.21318354
92	0x3df26843	0.118362926
93	0xbbbb9008	-0.005723957
94	0x3dc26dbe	0.09493588
95	0xbdbeea04	-0.09321979
96	0xbdbd3954	-0.0923945
97	0x3e941919	0.28925398
98	0x3d5c47f2	0.05377955
99	0xbe9b050b	-0.30277285
100	0xbdf02bbf	-0.11727094
101	0xbe197f94	-0.14990073
102	0xbdc152ac	-0.094395965
103	0x3df916d2	0.12162556
104	0xbca878a8	-0.020565346
105	0x3e38428a	0.17994133
106	0xbce6973c	-0.028148286
107	0xbea0dbda	-0.31417733
108	0x3d9c7c44	0.07640889
109	0x3e7f18b3	0.24911766
110	0xbe4975dc	-0.19673866
111	0xbe3846b9	-0.17995729
112	0x3e949cea	0.29025966
113	0x3d8e7d44	0.06957486
114	0x3d4453b3	0.047931384
115	0x3d177d37	0.03698465
116	0x3ebd064d	0.3691887
117	0x3e93df7f	0.2888145
118	0xbe42db2b	-0.19028918
119	0xbe891983	-0.26777276
120	0x3e9e4e22	0.30918986
121	0xbe0e7c97	-0.13914715
122	0x3e99a0e6	0.30005568
123	0x3e2c1803	0.16806035
124	0xbebaef07	-0.36510488
125	0xbdb6adb2	-0.089198485
126	0xbe7c0ad7	-0.2461351
127	0xbdcac8fd	-0.09901617
128	0x3e0f585d	0.13998552
129	0x3a275b34	0.0006384135
130	0xbdcd5ea5	-0.10027818
131	0xbe01baab	-0.12668864
132	0xbd84772e	-0.06468044
133	0xbc8dc4ca	-0.01730575
134	0xbbba0b22	-0.0056775967
135	0xbe2f3aa0	-0.17112207
136	0xbca9aa37	-0.020711048
137	0x3e265c3a	0.16246119
138	0xbd1cc67b	-0.038275223
139	0x3cedb02e	0.029014673
140	0x3da23f7c	0.07922265
141	0x3e11500f	0.14190696
142	0xbe04dc59	-0.12974681
143	0xbd836857	-0.064163856
144	0xbdca733c	-0.098852605
145	0x3cddde1c	0.027083449
146	0xbc5c00b7	-0.013427905
147	0x3dc5523a	0.09634824
148	0xbd86c942	-0.06581356
149	0xbd0d9286	-0.034563564
150	0x3caa5cbd	0.020796174
151	0x3c9e7e80	0.01934743
152	0x3d501006	0.05079653
153	0x3ba58880	0.0050516725
154	0x3c14837c	0.009064551
155	0xbd28640d	-0.04111104
156	0x3c8fa778	0.01753591
157	0xbe1f151e	-0.155354
158	0x3e3eb269	0.18622746
159	0x3da05efb	0.07830616
160	0xbe239056	-0.15973029
161	0x3d23ebc5	0.04001977
162	0x3d1164c0	0.035496473
163	0xbddbc6e7	-0.10731297
164	0x3ccde2c7	0.02513255
165	0x3dc84496	0.09778707
166	0xbcbc2ea1	-0.022971453
167	0x3d5a22bb	0.053255778
168	0x3e04b4f9	0.1295966
169	0xbe0a25cf	-0.13490985
170	0xbc942fd6	-0.018089216
171	0xbd35e00a	-0.044403113
172	0x3c3e34bd	0.0116092535
173	0x3d8a8d10	0.06765187
174	0xbc5f2f7a	-0.013622159
175	0xbde17e73	-0.110104464
176	0x3e1631b8	0.14667404
177	0xbe18afcc	-0.14910811
178	0x3d93bd42	0.072138324
179	0xbdc3a340	-0.09552622
180	0x3d12da71	0.035852853
181	0x3db18ed2	0.08669819
182	0x3de02d17	0.109461
183	0xbe451a8b	-0.19248407
184	0x3e8ec3a7	0.27883646
185	0xbe22cd5a	-0.15898648
186	0x3e8996cf	0.2687287
187	0xbd9660fd	-0.07342718
188	0xbe0a7f11	-0.13525034
189	0xbd6041bc	-0.05475019
190	0xbe869183	-0.26282892
191	0xbdeb1606	-0.1147881
192	0x3e18819b	0.1489319
193	0x3e6bc397	0.2302383
194	0x3dcdd3a5	0.100501336
195	0x3dadc8a8	0.08485538
196	0xbce95a4f	-0.028485445
197	0x3e808d5e	0.25107855
198	0x3e5c6ae3	0.21525149
199	0x3c4cf164	0.012508724
200	0xbce7ef70	-0.028312415
201	0xbc2d0a66	-0.010561561
202	0xbd2fdb2e	-0.042933635
203	0x3e694f99	0.2278427
204	0xbdb5a6ef	-0.08869731
205	0x3cc92172	0.02455208
206	0x3e25bc1a	0.16185036
207	0xbe80d235	-0.25160375
208	0x3d88d544	0.06681302
209	0xbe8e1879	-0.27753046
210	0xbd9f71d9	-0.077853866
211	0xbd387de3	-0.04504193
212	0x3b7e7c2e	0.003883134
213	0xbe75a2fd	-0.23987956
214	0xbd8bf9c1	-0.06834746
215	0x3c187136	0.009304335
216	0x3dd83627	0.10557204
217	0xbcdc0daf	-0.026861994
218	0x3c0d1041	0.008609832
219	0x3ee245e4	0.44193947
220	0x3d95aaa4	0.07307938
221	0xbd92d743	-0.07169964
222	0x3e956f2c	0.2918638
223	0x3cbe291e	0.023212966
224	0xbeb10e1f	-0.34581086
225	0xbd47140d	-0.048603106
226	0x3dd376d5	0.103254
227	0xbec2d1ce	-0.38050693
228	0x3e0f4c90	0.1399405
229	0xbe63e7ed	-0.22256441
230	0x3df803e5	0.12110118
231	0x3e3b4462	0.18287805
232	0x3e033cf8	0.12816226
233	0x3b913eee	0.0044325506
234	0xbf17c96b	-0.59291714
235	0x3e69797b	0.22800247
236	0x3ec2beff	0.38036343
237	0x3b9b9e1b	0.0047490722
238	0xbb755a6f	-0.0037437936
239	0x3e8e9e32	0.27855068
240	0x3e0c33d0	0.1369164
241	0xbe22883f	-0.15872286
242	0x3eae71d1	0.3407121
243	0x3d8097a5	0.06278924
244	0x3bcd23db	0.006260378
245	0x3da98e24	0.08279064
246	0x3da34cae	0.0797361
247	0xbb05b7c2	-0.0020403718
248	0xbcefb53d	-0.029261226
249	0xbc277d19	-0.010222697
250	0x3e5433a3	0.20722823
251	0x3d12d9d3	0.035852265
252	0x3d9456fc	0.072431535
253	0xbd987a3d	-0.0744519
254	0x3dbb25fd	0.09138105
255	0x3cd27d4c	0.025694512

lstm.bias_ih_l1 f4 [256]
0	0x3dd3badb	0.10338374
1	0xbe3a2f26	-0.18182048
2	0xbda4f555	-0.08054606
3	0x3c5b3e20	0.013381511
4	0x3d95e2a5	0.0731862
5	0xbdc11bfc	-0.09429166
6	0x3dbe848f	0.09302627
7	0xbdbf14b8	-0.09330124
8	0x3e11a496	0.14222941
9	0xbdb4de2e	-0.0883144
10	0x3e29e5a4	0.16591507
11	0x3d8e9b15	0.06963173
12	0x3de6f139	0.11276478
13	0xbdbed2a7	-0.093175225
14	0x3e1fb5e2	0.15596727
15	0x3e0e33c7	0.13886939
16	0xbd6b753c	-0.05748485
17	0xbdc61e36	-0.09673731
18	0x3dfc2c57	0.12313145
19	0x3cb95265	0.022622297
20	0xbd4e3f47	-0.050353315
21	0xbd12c4e5	-0.035832305
22	0xbd1dabc4	-0.038493887
23	0xbccc69ad	-0.024952734
24	0x3cab503f	0.020912288
25	0xbcda79cc	-0.026669405
26	0x3de03d88	0.10949236
27	0x3da6be09	0.08141715
28	0xbda863b8	-0.08222145
29	0x3df0acbd	0.11751697
30	0xbdc6a33f	-0.096991055
31	0x3e112d74	0.14177495
32	0x3cdf454a	0.02725472
33	0xbd85942b	-0.065224014
34	0x3e83c154	0.25733435
35	0x3d5cf01c	0.053939924
36	0xbdbdb7f0	-0.09263599
37	0x3cabad92	0.020956788
38	0x3d077ae5	0.033076186
39	0x3deb5762	0.11491276
40	0xbcda2820	-0.026630461
41	0x3d6bb938	0.057549685
42	0xbdbb1a17	-0.091358356
43	0xbe045c15	-0.12925752
44	0x3e5dfc4f	0.2167828
45	0xbd0085c5	-0.031377573
46	0x3cfa0fbe	0.030525085
47	0xbd4c89b4	-0.04993601
48	0x3c63890f	0.013887658
49	0xbd8607a4	-0.06544426
50	0xbd0eb8b2	-0.034844108
51	0x3cd4b501	0.025965216
52	0x3cdcd4d5	0.026956955
53	0x3dd44d97	0.103663616
54	0x3e3ab676	0.18233666
55	0x3dc7948b	0.09745129
56	0x3e4f8e21	0.20269062
57	0x3d5159c7	0.05111101
58	0xbb92545f	-0.004465624
59	0xbcc56985	-0.024098167
60	0xbc5002fd	-0.012696025
61	0x3e28ca1f	0.16483353
62	0x3d8211dd	0.063510634
63	0x3d511835	0.051048476
64	0x3ca4fc61	0.020139875
65	0xbc72a046	-0.01480872
66	0x3d222687	0.039587524
67	0x3e147ecb	0.14501493
68	0x3dc7f2e4	0.097631246
69	0x3d3fbb4e	0.046809487
70	0x3c92a03e	0.017898675
71	0xbd453a07	-0.048151042
72	0x3dacfcf2	0.08446683
73	0x3cc4c44b	0.024019381
74	0x3cb4701d	0.022026116
75	0x3e104b4b	0.14091222
76	0xbda8bb59	-0.08238859
77	0x3de3ce39	0.11123318
78	0x3e37e8f4	0.17959958
79	0x3c61f1e6	0.013790583
80	0x3c7903da	0.015198672
81	0x3dde5678	0.10856336
82	0xbcada16d	-0.021195138
83	0x3c07f749	0.0082987035
84	0xbd8bf0f5	-0.06833068
85	0x3d00fc86	0.031490825
86	0x3d38607d	0.045013893
87	0x3b8fb2db	0.004385335
88	0x3ddbeee1	0.10738922
89	0x3cb1b4fd	0.021692747
90	0xbb9ed306	-0.0048469333
91	0xbe150327	-0.14551984
92	0x3def85bc	0.1169543
93	0x3db897a4	0.09013298
94	0x3e17742e	0.14790413
95	0x3d7d54b6	0.061848365
96	0xbdb8629d	-0.09003184
97	0xbc970199	-0.018433379
98	0x3caa87f2	0.020816777
99	0xbd504c6e	-0.05085414
100	0x3cd82192	0.026383195
101	0x3e0d6c61	0.13810875
102	0xbcf37c47	-0.029722346
103	0xbd84db1c	-0.06487104
104	0x3dc9167e	0.09818743
105	0xb82157c8	-3.8467144e-05
106	0xbd63f1f6	-0.055650674
107	0x3d8adba4	0.067801744
108	0xbdaa4ec9	-0.08315808
109	0x3dd1cc2e	0.10244022
110	0x3e0a1ead	0.13488264
111	0x3d892fc7	0.06698566
112	0x3dcd0d3c	0.1001229
113	0x3db8fc2c	0.09032473
114	0xbcb90353	-0.022584593
115	0x3e1aa69d	0.1510262
116	0x3c917b4b	0.017758986
117	0x3d3810fe	0.04493808
118	0x3da2c780	0.07948208
119	0x3de85b29	0.113455124
120	0x3dd824af	0.10553872
121	0x3d3cd3e7	0.046100523
122	0x3d9204ee	0.071298465
123	0x3d1bff33	0.038085174
124	0xbd996098	-0.07489127
125	0x3e18b191	0.14911486
126	0x3e2174f7	0.15767275
127	0x3ddec15d	0.10876725
128	0x3c1c7fe0	0.009551972
129	0x3dc58291	0.09644044
130	0x3cffc3df	0.031221328
131	0x3e0cf278	0.1376437
132	0x3e01fd26	0.12694225
133	0xbdd701df	-0.10498404
134	0xbdf88fd4	-0.12136808
135	0xbdc35b21	-0.09538866
136	0xbcd1b963	-0.025601095
137	0xbd7ee71a	-0.062232114
138	0xbd9f9f26	-0.07794027
139	0x39e487af	0.0004358864
140	0x3e1a38c0	0.15060711
141	0x3e0beae6	0.13663825
142	0xbd9b4bf2	-0.07582845
143	0xbe1937a5	-0.14962633
144	0xbdf95c5a	-0.12175818
145	0xbc4243b6	-0.011856964
146	0x3d4ea040	0.050445795
147	0x3e1ac9ea	0.15116087
148	0x3d1afa3a	0.03783629
149	0x3d33204e	0.04373198
150	0x3cd6fa65	0.026242444
151	0xbcf2d063	-0.029640382
152	0x3da402c2	0.080083385
153	0xbd591203	-0.052995693
154	0xbdb83a80	-0.08995533
155	0xbd841dbd	-0.064509846
156	0x3d97e762	0.0741718
157	0xbd04c995	-0.032418806
158	0xbd79cae4	-0.060984507
159	0xbe0dba06	-0.13840494
160	0x3d859508	0.06522566
161	0x3e0c3e8b	0.13695733
162	0x3e234735	0.15945132
163	0xbe224114	-0.15845138
164	0x3dc2e88c	0.09517011
165	0xbd66818f	-0.0562759
166	0xbdc69ffc	-0.09698483
167	0x3dc63d4a	0.09679659
168	0xbd2a1c4d	-0.041530896
169	0xbdad4d8a	-0.08462055
170	0xbd43d3dd	-0.04780947
171	0x3c1137ca	0.008863399
172	0x3b5092eb	0.0031825851
173	0x3bbf0c8f	0.0058303545
174	0xbda0bf53	-0.07848992
175	0xbda9ed6b	-0.08297237
176	0xbca8a420	-0.020586073
177	0x3dae1b28	0.085012734
178	0xbd81be4c	-0.063351244
179	0x3d177c4f	0.036983784
180	0x3d913082	0.0708933
181	0x3ce2b933	0.0276762
182	0xbd2dab3e	-0.042399637
183	0x3cb1a99a	0.021687318
184	0xbde2cc7d	-0.11074159
185	0x3d6b34f9	0.057423566
186	0xbde2ef7d	-0.11080835
187	0xbd479f91	-0.04873616
188	0x3d9d1999	0.07670898
189	0xbd8687e8	-0.06568891
190	0x3e15e7f0	0.14639258
191	0xbd12f719	-0.035880182
192	0x3dea6b47	0.11446243
193	0xbdec6508	-0.11542708
194	0x3e0ac114	0.13550216
195	0x3ceecfd2	0.02915183
196	0x3eab5283	0.3346139
197	0x3d88ee11	0.066860326
198	0x3d324bca	0.04352931
199	0xbd92e09d	-0.07171748
200	0x3dedf48b	0.116189085
201	0x3e22f966	0.1591545
202	0x3dcea219	0.100895114
203	0x3ded80a5	0.115968026
204	0xbdb39018	-0.08767718
205	0xbd9408c2	-0.07228233
206	0x3d8cd93a	0.0687737
207	0x3bc23ad1	0.0059274216
208	0x3e06d68f	0.13167785
209	0xbd96e3f1	-0.07367695
210	0x3e18429a	0.14869156
211	0x3e088b18	0.1333431
212	0xbd8ba5e8	-0.068187535
213	0xbd1c59cd	-0.03817158
214	0xbd39165a	-0.04518733
215	0xbcbfd416	-0.02341656
216	0x3e096228	0.1341635
217	0xbd86694b	-0.06563052
218	0x3d57a82a	0.052650608
219	0x3db8bf47	0.09020858
220	0x3ba64ca8	0.005075056
221	0x3d300437	0.04297277
222	0xbca77f71	-0.020446511
223	0x3e105cc5	0.14097889
224	0x3e81953c	0.2530917
225	0xb755a840	-1.2734963e-05
226	0x3da26037	0.07928508
227	0x3e45f415	0.19331391
228	0xbc068555	-0.0082105
229	0x3e1da532	0.15395048
230	0x3dc29cc8	0.0950256
231	0xbcf88109	-0.030334966
232	0x3e2b059c	0.16701359
233	0x3dff6f9b	0.12472459
234	0xbd3dbf73	-0.04632516
235	0x3a48fcc7	0.0007667061
236	0x3dda94ed	0.106729366
237	0x3d56097d	0.052255142
238	0xbd0918b1	-0.033470813
239	0x3c8b35bb	0.016993394
240	0x3e065c6c	0.13121194
241	0x3e3a09d1	0.18167807
242	0x3d2b454b	0.04181413
243	0x3dab0e3f	0.083523266
244	0x3c35750a	0.011075268
245	0x3d4dbcde	0.050228946
246	0x3e43b905	0.19113548
247	0xbb829a77	-0.003985699
248	0x3e3663aa	0.17811456
249	0x3d968d16	0.07351129
250	0x3c92ade4	0.017905183
251	0x3c49abae	0.012308998
252	0x3e23651a	0.15956536
253	0x3e0d4ae3	0.13798098
254	0xbd765ecf	-0.06014901
255	0x3b4528d1	0.0030084143
